cephalopod/clon/policy_bc.pt (torch, 900952 bytes, 8 tensors)

conv.0.weight f4 [32, 2, 3, 3]
0	0xbe3b45c3	-0.1828833
1	0x3d9d671f	0.076856844
2	0xbe808475	-0.25101057
3	0x3e3e3dc6	0.18578252
4	0x3a0bd2f9	0.00053338666
5	0xbec157a9	-0.37762192
6	0xbea01fe2	-0.31274325
7	0xbe4f40d7	-0.20239578
8	0x3e5c3c9c	0.21507496
9	0xbe975ff2	-0.29565388
10	0x3e671402	0.22566226
11	0xbdeac107	-0.11462598
12	0xbd3ac32c	-0.045596287
13	0x3e62d49a	0.22151414
14	0xbdaf8c02	-0.08571626
15	0x3e8d1c63	0.2756072
16	0x3deb4669	0.11488039
17	0xbe247752	-0.16061142
18	0x3e486bcc	0.19572371
19	0x3d31d61b	0.043417078
20	0xbbcc7683	-0.0062397136
21	0x3dc1f435	0.09470407
22	0x3e5a2b0f	0.21305488
23	0xbd93fb48	-0.072256625
24	0x3e4e3436	0.20137104
25	0xbf7ebb90	-0.9950495
26	0x3de58e86	0.11208825
27	0xbb675106	-0.0035296096
28	0xbed8161f	-0.42204377
29	0x3d3c674d	0.045996953
30	0xbe3e6f39	-0.18597116
31	0xbeafe0da	-0.34351236
32	0x3ea64a9d	0.324788
33	0x3e28d3e6	0.16487083
34	0xbf6d7f2d	-0.9277218
35	0x3e6fce3d	0.23418517
36	0x3d4fd41b	0.05073939
37	0x3e05ea94	0.13077766
38	0x3e4a11d4	0.19733363
39	0x3e8fa0e4	0.28052437
40	0x3c1cdf62	0.009574743
41	0xbeba0548	-0.36332154
42	0x3e210768	0.15725482
43	0x3e06a997	0.13150631
44	0xbe8cb9a2	-0.27485377
45	0xbdfcf9c7	-0.12352329
46	0xbd716c22	-0.058941014
47	0x3cc76cdb	0.024343899
48	0x3ddc026b	0.10742649
49	0xbdd4f6c4	-0.10398629
50	0xbec8e303	-0.39235696
51	0xbd4ef2ed	-0.05052464
52	0xbe2566e7	-0.16152535
53	0x3e51e73c	0.20498365
54	0x3db2b1b7	0.08725303
55	0x3d736c03	0.05942918
56	0xbe0d94d0	-0.13826299
57	0x3ea87b6c	0.32906663
58	0xbee1df41	-0.44115642
59	0x3de9bbe5	0.11412791
60	0x3e5ab4b9	0.21358003
61	0x3d61ba4f	0.05510932
62	0xbee2373e	-0.4418277
63	0xbe07d833	-0.13266067
64	0xbe9a7272	-0.3016544
65	0x3e868923	0.26276502
66	0x3d9867e8	0.074416935
67	0xbef64fb3	-0.4810768
68	0xbda2298c	-0.07918081
69	0x3dfce450	0.12348235
70	0xbe8fa429	-0.28054932
71	0xbcc9625b	-0.024583032
72	0xbca23d16	-0.019804519
73	0xba296166	-0.0006461352
74	0xbe29598c	-0.16538066
75	0x3e088889	0.13333334
76	0xbf0bc515	-0.545976
77	0x3e1e6a31	0.15470196
78	0xbd524dad	-0.05134361
79	0x3dd82cf0	0.10555446
80	0xbe2d2568	-0.169088
81	0x3dbb802b	0.091553055
82	0x3b99b1c5	0.004690381
83	0xbd89c70f	-0.067274205
84	0x3c8043fa	0.015657414
85	0xbf02d0ee	-0.5110005
86	0x3dd170bd	0.10226581
87	0x3e56de2e	0.20983192
88	0x3e70de5f	0.23522328
89	0xbca0f9a9	-0.019650297
90	0x3dc027de	0.09382604
91	0x3e08a4a2	0.13344052
92	0x3c06b143	0.008220973
93	0xbe178368	-0.14796221
94	0x3e4baf4e	0.19891092
95	0x3e88da2c	0.26728952
96	0xbe906742	-0.2820378
97	0x3d876eca	0.06612928
98	0xbdf65445	-0.12027792
99	0x3dba9f04	0.09112361
100	0xbe5c62c1	-0.21522047
101	0xbded03b2	-0.115729704
102	0x3de43f96	0.111449406
103	0xbd769515	-0.06020077
104	0xbd601db9	-0.054715846
105	0x3d01a1bf	0.031648394
106	0x3cfdf9a5	0.031002829
107	0xbdafa85a	-0.085770324
108	0x3d1d0eff	0.03834438
109	0xbe6b4e34	-0.22979051
110	0xbe28dd5c	-0.16490692
111	0x3e455c54	0.19273502
112	0xbd581f1b	-0.05276404
113	0xbdb36295	-0.087590374
114	0xbe816843	-0.25274858
115	0x3ed3b2dc	0.41347396
116	0xbf1e218e	-0.6176995
117	0xbcc9d1cc	-0.024636172
118	0xbe8ca921	-0.27472785
119	0x3e9d1403	0.3067933
120	0x3e7becbf	0.2460203
121	0x3dabcaf6	0.08388321
122	0xbda69b82	-0.081351295
123	0xbe23bf34	-0.15990907
124	0x3e093f98	0.13403165
125	0xbf5f2721	-0.8716908
126	0xbe98552e	-0.29752487
127	0xbd6b8743	-0.057502043
128	0x3d11aebe	0.035567038
129	0x3e83dcf0	0.257545
130	0x3db24872	0.08705224
131	0xbed6628f	-0.4187207
132	0x3e36797a	0.17819777
133	0x3d5a282f	0.05326098
134	0xbe895f95	-0.26830736
135	0x3de83a34	0.11339226
136	0x3d29075d	0.041266788
137	0x3e1165ff	0.14199065
138	0xbd703d0f	-0.05865198
139	0x3df94887	0.121720366
140	0xbf01526c	-0.5051639
141	0xbd17056d	-0.03687041
142	0xbd9066f2	-0.07050885
143	0x3ded92ed	0.116002895
144	0x3de08c5e	0.10964273
145	0xbdbe5287	-0.092930846
146	0x3cae634c	0.021287583
147	0xbe107d72	-0.14110354
148	0x3d18e7f7	0.037330594
149	0x3e028093	0.1274436
150	0xbe65ff71	-0.22460724
151	0xbe62ba19	-0.22141303
152	0xbecda857	-0.40167496
153	0x3cf70267	0.030152513
154	0x3d9eeae2	0.07759644
155	0x3d12267e	0.03568124
156	0xbd154da6	-0.036451004
157	0x3c802168	0.01564093
158	0x3d3e9dd4	0.046537235
159	0xbb5cd961	-0.0033698904
160	0xbe2c0fd2	-0.1680291
161	0x3e45ed8f	0.19328903
162	0xbd8533da	-0.065040305
163	0x3ec54ee6	0.38536757
164	0xbe46cb70	-0.19413543
165	0xbe8d71e9	-0.2762597
166	0xbe3fc1c7	-0.18726264
167	0xbeb2c875	-0.34918562
168	0x3edfb287	0.43690893
169	0x3efa08d4	0.4883486
170	0xbe6d014e	-0.23145029
171	0x3dc57d5f	0.09643053
172	0x3dc9ae21	0.098476656
173	0xbecffe04	-0.40623486
174	0xbed23a16	-0.4105994
175	0xbe9fd3c4	-0.31216252
176	0xbf0a4297	-0.5400786
177	0x3c9e8f28	0.019355372
178	0x3e858a97	0.26082298
179	0xbe42e63d	-0.19033141
180	0x3d9e86fe	0.077405915
181	0x3dc33f17	0.09533518
182	0xbd1c68b0	-0.038185775
183	0xbe670872	-0.22561815
184	0xbe739666	-0.23787841
185	0xbd797a64	-0.060907736
186	0x3d9e493b	0.07728811
187	0xbee2893f	-0.44245335
188	0xbf026027	-0.50927967
189	0x3d3b3883	0.04570819
190	0x3d7bb26a	0.061449446
191	0x3e9f4e26	0.3111431
192	0xbebddbef	-0.3708186
193	0xbd13d018	-0.036087126
194	0xbe8752de	-0.2643041
195	0x3dac252e	0.08405529
196	0xbf1cbc92	-0.61225235
197	0x3d10938c	0.03529696
198	0xbe5f07df	-0.21780346
199	0xbe04398d	-0.12912579
200	0x3b68fd72	0.0035551456
201	0x3dc6c8e8	0.097062886
202	0xbcb05063	-0.021522706
203	0xbdafe48a	-0.08588512
204	0x3daf2dcd	0.08553658
205	0xbf07ca99	-0.53043514
206	0xbe4ea490	-0.20179963
207	0x3dbb3f2e	0.0914291
208	0x3e20c33d	0.15699477
209	0xbe35d8d3	-0.17758493
210	0x3da0b26e	0.07846533
211	0x3e16340c	0.14668292
212	0x3d833bbe	0.06407879
213	0x3da93a30	0.082630515
214	0xbedfb6dd	-0.436942
215	0xbdbe5040	-0.0929265
216	0xbdfcf141	-0.12350703
217	0x3e5d9b77	0.21641336
218	0xbd919c92	-0.071099415
219	0x3d677d23	0.056515824
220	0xbdb8f5a2	-0.09031226
221	0x3d9357b0	0.071944594
222	0xbee92081	-0.4553261
223	0x3eab3c0b	0.33444247
224	0xbe8abf3e	-0.2709903
225	0xbe6fc245	-0.23413952
226	0x3e08601a	0.1331791
227	0x3de79236	0.113071844
228	0xbd4ddde9	-0.05026046
229	0x37d534c8	2.5416157e-05
230	0x3d21bced	0.039486814
231	0xbf18bd7e	-0.5966414
232	0x3e1e0777	0.15432535
233	0xbeaaec46	-0.33383387
234	0xbe1bf7a5	-0.15231188
235	0xbe660bde	-0.22465464
236	0xbd10ec5b	-0.035381656
237	0x3e9ab0c9	0.30213
238	0xbe46ee4f	-0.19426845
239	0x3bf6fcca	0.007537459
240	0x3e51c5cd	0.20485611
241	0x3e47e44b	0.1952068
242	0x3ea76005	0.32690445
243	0xbdcebd9b	-0.10094758
244	0x3d65e67d	0.056128014
245	0x3e80ac77	0.2513158
246	0xbdeec487	-0.11658578
247	0xbbf8ab15	-0.007588754
248	0x3e42c14f	0.19019054
249	0xbdf67316	-0.1203367
250	0xbe3d47cb	-0.18484418
251	0x3e321355	0.17390187
252	0xbe961d57	-0.2931926
253	0xbddce960	-0.107867
254	0x3d4e8265	0.050417323
255	0x3e0231c6	0.127143

conv.0.bias f4 [32]
0	0x3ce900c0	0.02844274
1	0xbc3751a2	-0.011188896
2	0x3d80b804	0.06285098
3	0x3c426803	0.011865619
4	0xbbb7a17f	-0.0056039686
5	0x3d05348a	0.03252081
6	0xbe3c4141	-0.18384267
7	0xbd030672	-0.03198857
8	0xbd2a351e	-0.041554563
9	0x3ba1b06c	0.004934361
10	0x3d896e58	0.067104995
11	0x3cbb654b	0.022875449
12	0xbc437d7d	-0.011931774
13	0xbe89c28c	-0.2690624
14	0xbc5bf73d	-0.013425645
15	0x3d5a2c96	0.053265177
16	0xbe84c493	-0.25931224
17	0x3c8d7f1d	0.017272526
18	0x3cb956e3	0.022624439
19	0xbceb7272	-0.028741095
20	0xbba54b78	-0.005044397
21	0xbd75fd16	-0.060055815
22	0x3cb0f3c6	0.021600615
23	0xbb8dfcff	-0.004333138
24	0xbe92fe27	-0.28709528
25	0xbe321ef2	-0.17394617
26	0xbe6fd358	-0.23420465
27	0x3dd82d12	0.105554715
28	0x3cafe6e7	0.021472408
29	0x3cb78ae9	0.022405105
30	0x3d4f5e64	0.050627127
31	0xbba3130e	-0.0049766367

conv.2.weight f4 [64, 32, 3, 3]
0	0x3e0a80cf	0.13525699
1	0x3de35d25	0.1110175
2	0xbe73b773	-0.23800449
3	0xbdaf484e	-0.08558713
4	0xbdafddfe	-0.085872635
5	0xbe7839ca	-0.24240795
6	0xbd980ef7	-0.07424729
7	0xbe75b82d	-0.23996039
8	0x3d4d846d	0.05017512
9	0xbdbf4e3b	-0.09341093
10	0x3e7745d5	0.24147733
11	0x3e0c116f	0.13678525
12	0x3dd7a7a8	0.10530025
13	0x3dddb36d	0.108252384
14	0x3de2d7cb	0.110763155
15	0xbed82b66	-0.4222061
16	0x3dd2bae6	0.10289554
17	0x3e3250ed	0.17413683
18	0xbc9c5194	-0.019081868
19	0x3c4f8aec	0.012667399
20	0x3c8e6554	0.017382301
21	0x3d1d9174	0.038468793
22	0xbc6a8df0	-0.014316067
23	0xbe00de36	-0.12584767
24	0xbc7a3ae8	-0.015272833
25	0x3b97aa60	0.0046284646
26	0xbe0f37c1	-0.13986112
27	0xbeafceba	-0.34337407
28	0xbe824ac9	-0.25447682
29	0x3b22028a	0.0024720752
30	0x3cda7e32	0.026671503
31	0x3e561bcc	0.20909041
32	0xbd8258fb	-0.06364628
33	0x3d2aceb6	0.04170104
34	0x3d3389dc	0.043832645
35	0x3d94146d	0.072304584
36	0x3dab2e43	0.08358433
37	0xbdc2e329	-0.095159836
38	0xbde4a350	-0.11163962
39	0xbc2690fb	-0.010166402
40	0xbd534fc9	-0.05158976
41	0xbe51e54b	-0.20497625
42	0xbd5fea44	-0.054666772
43	0xbd229c5b	-0.039699893
44	0x3e143945	0.14474972
45	0x3caf8f7d	0.021430725
46	0xbced972a	-0.029002745
47	0x3e2ceef5	0.1688803
48	0x3df13b03	0.11778834
49	0xbd19d55b	-0.037556987
50	0x3e3b6a26	0.18302211
51	0x3c2162e7	0.00985024
52	0x3beb8924	0.0071879793
53	0xbad6c88b	-0.0016386671
54	0xbdb6fdd6	-0.08935134
55	0xbe72cd5a	-0.23711148
56	0x3d93ef32	0.07223357
57	0xbdc9f62e	-0.09861408
58	0xbdef646c	-0.11689076
59	0x3d80c442	0.06287433
60	0xbe37bb8d	-0.17942639
61	0xbe049b94	-0.12949973
62	0xbda779d5	-0.081775345
63	0x3e118d33	0.1421402
64	0xbe04997b	-0.12949173
65	0xbe34d9bc	-0.17661184
66	0x3ca6519e	0.02030259
67	0xbd783d92	-0.060605593
68	0xbd2dd00f	-0.04243475
69	0xbc8faa0e	-0.017537143
70	0xbd4b386b	-0.04961435
71	0xbdeb7998	-0.114978015
72	0x3cdd3337	0.02700196
73	0x3dc71d2e	0.097223625
74	0x3dd87695	0.10569493
75	0x3d8da447	0.06916099
76	0x3db9d541	0.09073878
77	0x3c6771d9	0.0141262645
78	0x3c28b8ae	0.010297937
79	0x3db612c7	0.088903
80	0xbcc5afdb	-0.024131706
81	0x3dd1765f	0.102276556
82	0xbe65dfb5	-0.22448619
83	0xbd683ee3	-0.0567006
84	0xbe332f75	-0.17498572
85	0xbeb40a47	-0.3516409
86	0xbe3b0978	-0.18265331
87	0xbe0c308a	-0.13690391
88	0x3e26d7da	0.16293278
89	0x3df8a3d2	0.12140621
90	0x3d614b53	0.055003475
91	0xbd8f474d	-0.069960214
92	0x3dc3e695	0.095654644
93	0x3e13e812	0.14443997
94	0x3cb1a9bb	0.02168738
95	0x3e73ee76	0.23821434
96	0x3d8c6b8b	0.0685645
97	0x3e53482f	0.20633005
98	0xbd914018	-0.07092303
99	0x3d49f673	0.049307298
100	0x3e001e61	0.12511589
101	0xbdc21f94	-0.09478679
102	0xbd6fec48	-0.058574945
103	0xbc7243a7	-0.014786637
104	0xbe34c2bf	-0.17652415
105	0xbd947220	-0.0724833
106	0xbe6e2b76	-0.23258767
107	0xbda60d95	-0.08108059
108	0xbd15730a	-0.036486663
109	0x3d0dec21	0.03464902
110	0xbe069c2f	-0.13145517
111	0xbe1c7525	-0.15279062
112	0x3c859836	0.016307931
113	0x3dcdacff	0.10042762
114	0xbc5dae16	-0.013530275
115	0xbe04f87f	-0.12985419
116	0x3ead02ca	0.3379119
117	0xbd82bf8e	-0.063841924
118	0xbb3c982e	-0.002877723
119	0x3de025be	0.10944699
120	0xbd3bf5a5	-0.04588856
121	0xbe567cef	-0.20946096
122	0x3e20448b	0.15651147
123	0xbe6e9b86	-0.23301515
124	0xbdf752ec	-0.12076363
125	0xbdb1d0a1	-0.08682371
126	0x3dc8b084	0.09799293
127	0xbcaf21a0	-0.021378338
128	0x3ca32da6	0.019919228
129	0xbd2f3bb3	-0.042781543
130	0x3d21ce62	0.039503463
131	0x3dcf7ee8	0.10131627
132	0xbddd353f	-0.108011715
133	0x3c5d7d4c	0.013518643
134	0x3d7d644c	0.06186323
135	0x3e199177	0.14996897
136	0x3dddcbce	0.10829888
137	0xbe92299a	-0.28547364
138	0x3c7f04ce	0.01556511
139	0xbd2f695d	-0.04282509
140	0xbdf3d5d3	-0.11906018
141	0xbdaa59f2	-0.08317937
142	0x3de4fc0c	0.111808866
143	0xbb41410f	-0.002948824
144	0x3dd4f4bf	0.10398244
145	0x3bd66884	0.006543221
146	0xbe2f62a0	-0.17127466
147	0x3d81177e	0.06303309
148	0xbdbfbb8d	-0.09361944
149	0xbd95d8a2	-0.0731671
150	0x3e1185ed	0.14211245
151	0xbdb5f053	-0.08883729
152	0xbd812ce7	-0.063073926
153	0x3d1cf77e	0.038321964
154	0x3c6f615c	0.014610615
155	0x3c8bbe13	0.017058408
156	0xbd76e2de	-0.06027495
157	0x3e25ea0f	0.16202568
158	0xbd23dc4a	-0.040005006
159	0xbc404b22	-0.011736663
160	0x3d7a8c61	0.061169032
161	0xbcb18e78	-0.02167438
162	0xbcef629a	-0.029221822
163	0xbd3a12bd	-0.045428026
164	0x3e3111cf	0.1729195
165	0xbd27177c	-0.04079388
166	0xbd9a77f0	-0.075424075
167	0xbd88aad0	-0.06673205
168	0xbc849f9f	-0.016189395
169	0x3e0bff9e	0.13671729
170	0xbdb4b699	-0.0882389
171	0xbd460214	-0.048341826
172	0x3c89e25c	0.01683157
173	0x3d514e32	0.051099963
174	0x3db7f5e0	0.08982444
175	0x3e5a2e5a	0.21306744
176	0xbccb7605	-0.02483655
177	0xbbfd8185	-0.007736387
178	0x3db4e546	0.08832793
179	0xbe512d50	-0.20427442
180	0xbd20fc32	-0.039303012
181	0xbd16cd66	-0.036816977
182	0xbe44d05f	-0.19220112
183	0xbe69ac9e	-0.22819754
184	0x3e1510ef	0.14557241
185	0xbdbc5a3a	-0.09196897
186	0xbe16b5c1	-0.14717771
187	0x3d431f6f	0.0476374
188	0x3d4b25d4	0.049596623
189	0x3cec1759	0.028819727
190	0x3e1e9739	0.15487374
191	0x3b670fc5	0.0035257202
192	0x3d0696df	0.032858726
193	0xbd18cbf8	-0.037303895
194	0xbdd0c3be	-0.10193585
195	0x3c94425d	0.01809805
196	0x3cab8dd5	0.020941654
197	0xbdba2ad4	-0.090902
198	0x3d49df41	0.049285177
199	0xbc960767	-0.018314077
200	0xbda5d90d	-0.0809804
201	0xbe9286af	-0.2861838
202	0x3e1be858	0.15225351
203	0x3ce58531	0.028017612
204	0xbda05b05	-0.078298606
205	0xbb5bd915	-0.003354614
206	0x3e02f9d1	0.1279061
207	0x3da7c2ee	0.08191477
208	0xbe07aada	-0.13248768
209	0xbdb1d97a	-0.086840585
210	0x3cdb5eef	0.026778666
211	0xbd3d4583	-0.04620887
212	0xbf0af563	-0.5428068
213	0x3e230836	0.15921101
214	0xbeaf2e1f	-0.34214875
215	0xbe2dbd5e	-0.16966769
216	0x3d3023a1	0.04300273
217	0x3d8a65f0	0.06757724
218	0xbcdb7461	-0.026788892
219	0x3d991b19	0.074758716
220	0x3e03785f	0.12838887
221	0xbd431ac1	-0.047632936
222	0x3e3a85d1	0.1821511
223	0x3dddc994	0.108294636
224	0xbd90d96f	-0.07072722
225	0xbd2be73b	-0.041968565
226	0x3deb3242	0.11484195
227	0x3d0f9321	0.035052422
228	0x3d22d5f7	0.039754834
229	0xbd55bdb2	-0.05218286
230	0xbcdfbb54	-0.027311005
231	0xbe089aa0	-0.13340235
232	0xbe2983a3	-0.16554122
233	0xbd3aac91	-0.04557473
234	0xbdb3027b	-0.087407075
235	0x3d07e773	0.03317971
236	0x3dd10c9b	0.102074824
237	0x3db8bfa4	0.090209275
238	0x3e0c7878	0.1371783
239	0x3d1b9295	0.03798159
240	0xbd735ea3	-0.059416424
241	0xbd7e175b	-0.062033992
242	0xbc03def2	-0.00804876
243	0xbb397697	-0.0028299445
244	0xbd83e584	-0.06440261
245	0x3ca84446	0.020540368
246	0xbe1efc99	-0.15526046
247	0x3ca7fe0c	0.020506881
248	0xbe5e93c2	-0.21736053
249	0xbd2c6d48	-0.042096406
250	0x3c641013	0.013919848
251	0xbc488407	-0.012238509
252	0xbe2f1cbe	-0.17100808
253	0xbdd6026c	-0.10449681
254	0xbe03982b	-0.12851016
255	0x3b80088d	0.0039072693

conv.2.bias f4 [64]
0	0x3c9806b4	0.018557884
1	0xbccb0fcb	-0.024787804
2	0xbc490141	-0.012268365
3	0xbbd10355	-0.006378571
4	0xbdac1320	-0.08402085
5	0xbd0abbd2	-0.033870526
6	0xbc1d3089	-0.009594091
7	0xbab70650	-0.0013963673
8	0xbb221c0f	-0.0024735963
9	0x3b23bd90	0.0024984814
10	0xbc8cf9cc	-0.017208956
11	0xbd02bfb0	-0.03192109
12	0x3a977792	0.001155602
13	0x3d6a2886	0.057167552
14	0xbce10b92	-0.027471337
15	0x3cfa3f2f	0.030547706
16	0xbca5ae7c	-0.020224802
17	0xbc8cee0c	-0.017203353
18	0xbb30f5a0	-0.0027001873
19	0xbd3910e8	-0.04518214
20	0xbcf5a2aa	-0.02998479
21	0xbbf3cef5	-0.0074404427
22	0xbd087095	-0.03331049
23	0x3d31644a	0.043308534
24	0xbd0af0b3	-0.033920955
25	0x3c115b0d	0.008871806
26	0xbc8e2c6c	-0.017355166
27	0xbcfcf0cc	-0.03087654
28	0xbd09bd2e	-0.03362768
29	0xbe199dd9	-0.1500162
30	0xbc9791ff	-0.018502234
31	0x3c8854f9	0.01664208
32	0x3cfa4203	0.030549055
33	0xbcdb893a	-0.026798833
34	0xbb5c879f	-0.0033650172
35	0xbc197aff	-0.009367703
36	0xbc97344e	-0.018457558
37	0xbd89137d	-0.0669317
38	0xbd0133f4	-0.031543687
39	0xbd17bec9	-0.03704718
40	0xbc91e37d	-0.01780867
41	0xbbad46c5	-0.0052879774
42	0x3c644497	0.013932369
43	0xbda0fac1	-0.078603275
44	0xbd51f6c5	-0.05126073
45	0xbb9351e2	-0.004495845
46	0xbd45d12e	-0.048295192
47	0x3c4044ab	0.011735122
48	0xbd18cc44	-0.037304178
49	0x3b8d7a48	0.0043175556
50	0xbd831557	-0.064005546
51	0x3b954204	0.004554989
52	0xbc2c0852	-0.010500031
53	0xbbb540a9	-0.0055313897
54	0xbd02e7c2	-0.031959303
55	0x38cf0630	9.871682e-05
56	0x3b9cb6b1	0.0047825207
57	0x3bb16a83	0.0054143085
58	0xbbd2cc90	-0.006433077
59	0xbc845e64	-0.01615829
60	0xbc7b4e74	-0.015338529
61	0x3c93d2c1	0.018044831
62	0xbd3122be	-0.043246023
63	0x3c3b183d	0.011419353

fc.0.weight f4 [128, 1600]
0	0xbc869570	-0.01642868
1	0x3ad96b83	0.0016587827
2	0xbca72eb7	-0.020408018
3	0xbb75a008	-0.003747942
4	0xbac6c7f6	-0.0015165794
5	0xbd430cd2	-0.04761965
6	0xbc6793d5	-0.014134367
7	0x3bf916d9	0.0076016006
8	0xbc89a0fe	-0.0168004
9	0xbcefdf71	-0.02928135
10	0xbd1147b1	-0.03546876
11	0xbc74aa1d	-0.014933136
12	0xbd02204a	-0.031769074
13	0xbd499ede	-0.049223773
14	0xbd4df4f3	-0.05028243
15	0xbd2b6e98	-0.041853517
16	0xbd547e5e	-0.051878326
17	0xbd1c17f1	-0.03810877
18	0xbccef578	-0.025263533
19	0xbd4f8696	-0.05066546
20	0xbc9eacbf	-0.019369481
21	0xbd106d77	-0.035260644
22	0xbc45df06	-0.012077099
23	0xbc4ba6b4	-0.012429882
24	0xbd460414	-0.048343733
25	0xbb6d9750	-0.003625352
26	0xbcbf8a68	-0.023381427
27	0xbc1cf35e	-0.009579508
28	0xbbbbb627	-0.0057285014
29	0xbb838f8c	-0.004014915
30	0x3ce5f532	0.02807102
31	0xbbbb4f35	-0.0057162293
32	0xbc948187	-0.01812817
33	0xbd5809e7	-0.05274382
34	0xbd199539	-0.037495825
35	0x3c8255fa	0.015910137
36	0xbc9c847d	-0.019106144
37	0xbc9f969e	-0.019481
38	0xbd70b6d8	-0.058768123
39	0xbc1d334d	-0.009594751
40	0xbc85be1a	-0.016325999
41	0xbc440761	-0.01196465
42	0xbd198a7f	-0.037485596
43	0xbd364d8b	-0.044507544
44	0xbd63223e	-0.055452578
45	0xbd1abf27	-0.037779953
46	0xbc04b2d0	-0.008099273
47	0x3ac7d520	0.0015246011
48	0xbc6a7cc2	-0.014311971
49	0xbd1217c1	-0.035667185
50	0xbd25b855	-0.040458996
51	0x3cc389c1	0.023869397
52	0xbba182c0	-0.0049289167
53	0xbccc9492	-0.024973188
54	0xbc963c35	-0.018339256
55	0xbcbc2479	-0.02296661
56	0xbd271e82	-0.04080058
57	0xbc2fc018	-0.010726951
58	0xbcc710f7	-0.024300082
59	0xbcc76cba	-0.024343837
60	0xbd0afbb6	-0.033931457
61	0xbc60c9be	-0.013719974
62	0x3c7380e7	0.014862276
63	0xbd3ae647	-0.045629766
64	0xbc912596	-0.017718118
65	0xbd216f4b	-0.039412778
66	0xbc25a21d	-0.010109452
67	0xbc1166c5	-0.0088746
68	0xbd615e2f	-0.05502146
69	0xbd4ea59e	-0.050450914
70	0xbd4a5555	-0.049397785
71	0xbd5dc5b0	-0.054143608
72	0xbc9723f0	-0.018449754
73	0x3bec9c2c	0.0072207656
74	0xb7dc4000	-2.6255846e-05
75	0xbca44cfe	-0.020056244
76	0xbc217c95	-0.009856363
77	0x3c30275a	0.01075157
78	0xbc39f607	-0.011350161
79	0xbd4ce460	-0.050022483
80	0xbc2c1abb	-0.01050442
81	0x3c72d2be	0.014820753
82	0xbd0f3287	-0.034960296
83	0xbd1e525d	-0.038652766
84	0xbccdd9dc	-0.025128298
85	0xbd282011	-0.041046206
86	0x3bd81ad0	0.006594993
87	0xbcf07ba7	-0.029355837
88	0xbd7db6ef	-0.061942037
89	0x3a1c14a2	0.0005954002
90	0x3d1678af	0.036736187
91	0xbd0a6c01	-0.033794407
92	0xbcecc0df	-0.028900562
93	0xbd0595c8	-0.032613546
94	0xbcdf47fa	-0.027256
95	0xbc8113cd	-0.015756512
96	0xbc8b9e4b	-0.017043253
97	0xbd379202	-0.04481698
98	0xbd33cb4a	-0.043895043
99	0xbd38e5d7	-0.045141067
100	0x3d25d067	0.04048195
101	0x3d07d6bf	0.033163782
102	0xbd3a7cff	-0.04552936
103	0xbd0fb4e0	-0.035084605
104	0xbd6dc77a	-0.058051564
105	0x3c9c50f8	0.019081578
106	0xbd07c594	-0.03314741
107	0x3ae349ef	0.001734076
108	0xbc8cfbe9	-0.017209964
109	0xbc97d944	-0.018536218
110	0xbd47ce3f	-0.048780676
111	0xbd3f33f9	-0.046680424
112	0xbd48d60c	-0.049032256
113	0xbd2a9e7c	-0.04165505
114	0xbd09e221	-0.03366292
115	0xbced7fbb	-0.02899157
116	0xbd5eba5e	-0.054376952
117	0xbbe9338e	-0.0071167415
118	0xbc21cc5f	-0.009875386
119	0xbd684475	-0.05670591
120	0xbc85a91e	-0.016315993
121	0xbd66d8b6	-0.056359015
122	0xbd4047ba	-0.046943404
123	0xbcef2f39	-0.029197322
124	0xbb2bbee2	-0.0026206304
125	0x3bd1ed13	0.0064064353
126	0xbd28e539	-0.04123423
127	0x3be7ecc6	0.007077786
128	0xbd4e85ab	-0.050420444
129	0xbd057bb4	-0.032588676
130	0x3bc62633	0.006047034
131	0xbd2ce821	-0.042213563
132	0xbcf48838	-0.02985011
133	0xbd40fc41	-0.047115568
134	0xbd61114b	-0.054948132
135	0xbcf4e80a	-0.029895801
136	0xbcf5b8fa	-0.02999543
137	0xbc5774aa	-0.0131503735
138	0xbd1c1da6	-0.038114212
139	0xbd32ceaf	-0.04365414
140	0xbcf0280c	-0.02931597
141	0xbcdb64aa	-0.026781399
142	0xbd5a5966	-0.053307913
143	0xbcd48665	-0.02594299
144	0xbc989619	-0.01862626
145	0xbccd2f70	-0.025047034
146	0xbd609078	-0.054825276
147	0xbcfd5595	-0.030924598
148	0xbd44394d	-0.04790621
149	0x3cdcbbb6	0.026944976
150	0xbc2a2116	-0.010383865
151	0xbc91c819	-0.01779561
152	0xbb842e55	-0.0040338435
153	0xbd6b9eea	-0.0575246
154	0x3c048f49	0.0080908025
155	0x3d17583f	0.036949392
156	0xbcc7e3de	-0.024400648
157	0xbcb1a44f	-0.021684794
158	0xbc16443d	-0.009171543
159	0xbcae9c4f	-0.021314768
160	0xbc6dadae	-0.0145067405
161	0xbcc3bcfd	-0.023893828
162	0xbcb4c8c3	-0.022068387
163	0xbc4ae505	-0.012383704
164	0xbd3f1567	-0.04665127
165	0xbba1ad59	-0.0049339947
166	0x3c14d062	0.009082885
167	0xbce9b7dd	-0.028530056
168	0xbd4d4f09	-0.050124202
169	0xbc08c881	-0.008348585
170	0x3c65b4ea	0.014020184
171	0x3b88ab20	0.0041707903
172	0xbd311307	-0.043231037
173	0xbc1e1371	-0.00964819
174	0xbd20b722	-0.03923715
175	0x3c1c41ee	0.009537203
176	0xbbddbdc1	-0.006767005
177	0xbc5df542	-0.013547244
178	0xbd389c74	-0.04507108
179	0xbbcd7026	-0.0062694727
180	0xbc5869ed	-0.013208848
181	0xbd3f043d	-0.0466349
182	0xbd4dcffd	-0.05024718
183	0xbcf15383	-0.029458767
184	0x3ca1b2cf	0.019738583
185	0xbb57ebc3	-0.0032946921
186	0xbce0d3fc	-0.027444832
187	0xbd16daf6	-0.03682991
188	0xbd87c7a5	-0.06629876
189	0xbc0e9a4d	-0.00870378
190	0xbd06583b	-0.032798987
191	0xbc9f2e81	-0.019431354
192	0xbd158663	-0.036505114
193	0xbd4d82ec	-0.050173685
194	0xbac74a3a	-0.0015204616
195	0x3c21dcc9	0.009879299
196	0xbc5fd7b2	-0.013662266
197	0xbd6c72a0	-0.057726502
198	0x3c46a80b	0.0121250255
199	0xbd73dd82	-0.05953742
200	0xbd3a5864	-0.045494452
201	0x3c083114	0.008312482
202	0xbcb8427e	-0.022492643
203	0x3d2a7df7	0.041624036
204	0xbc7f662e	-0.015588326
205	0x3b90dce5	0.004420864
206	0xbc1bad83	-0.009501818
207	0xbbdd76f9	-0.0067585674
208	0xbc8f604e	-0.017501976
209	0x3b38a989	0.0028177223
210	0x3c29bb62	0.010359617
211	0xbcf402aa	-0.029786427
212	0xbcb6ebad	-0.022329176
213	0xbcbc663a	-0.022997964
214	0xbd21407a	-0.03936813
215	0xbcc74428	-0.024324492
216	0xbd0df7cf	-0.034660157
217	0xbc99a93c	-0.018757455
218	0xbccb72ca	-0.02483501
219	0xbd10c393	-0.035342764
220	0xbd720b9e	-0.05909311
221	0x3d218165	0.03943004
222	0x3beeb4db	0.0072847432
223	0xbce85c29	-0.028364258
224	0xbd4fbf73	-0.05071969
225	0xbd403a5d	-0.04693066
226	0xbc65b833	-0.014020967
227	0xbcab5b6e	-0.02091762
228	0xbcfa72b4	-0.030572273
229	0xbd34315a	-0.043992378
230	0xbceba6a4	-0.028765984
231	0x3bd6f69c	0.00656016
232	0x3bae0828	0.005311031
233	0x3ab784b6	0.0014001343
234	0xbb8177ef	-0.003951065
235	0xbd288cae	-0.041149788
236	0xbcdcc4cb	-0.026949307
237	0xbd03671c	-0.032080755
238	0xbccb5734	-0.024821855
239	0x3c183766	0.009290552
240	0xbc0f64b5	-0.008752038
241	0xbc3f9509	-0.011693248
242	0xbd34044b	-0.043949407
243	0x3c736fcb	0.0148581965
244	0xbbadda5f	-0.005305573
245	0x3c56f564	0.013120029
246	0x3ad06329	0.0015898693
247	0xba5bcb47	-0.00083844777
248	0xbbab20d7	-0.0052224207
249	0xbcccf8be	-0.025020953
250	0xbd1a6380	-0.037692547
251	0xbd1d4523	-0.038396012
252	0xbcda5a9f	-0.02665454
253	0xbc9cd946	-0.019146573
254	0xbd128104	-0.03576757
255	0x3c8590d4	0.016304411

fc.0.bias f4 [128]
0	0xbcea1a0a	-0.02857687
1	0xbd9064d4	-0.070504814
2	0x3dc0f7c2	0.09422256
3	0xbb4e7f1d	-0.003150887
4	0x3bac5b1b	0.005259884
5	0xbcb231ab	-0.0217522
6	0xbca4a894	-0.020099916
7	0x3d167ba7	0.036739018
8	0xbd3c1a6b	-0.04592363
9	0x3cdf1032	0.027229402
10	0xbca5d0f0	-0.02024123
11	0xbcdbf07c	-0.02684807
12	0xbcd77556	-0.026301067
13	0xbc858578	-0.016298994
14	0xbcc0ce72	-0.02353594
15	0x3e0ec43c	0.13942045
16	0xbca9f440	-0.02074635
17	0xbcfdb608	-0.030970588
18	0xbc10a92b	-0.008829395
19	0x3cabadef	0.020956961
20	0xbd39f2cc	-0.045397565
21	0xbcfc61a7	-0.030808283
22	0xbcfba9d1	-0.030720623
23	0x3e088c80	0.13334846
24	0xbcb1778b	-0.021663448
25	0x3c2b03b3	0.010437894
26	0x3d88b253	0.06674638
27	0xbc9b0e9b	-0.018927863
28	0xbcb44fb4	-0.022010662
29	0x3d6c38d6	0.05767139
30	0xbc1524ac	-0.009102982
31	0x3c0aaa33	0.00846343
32	0xba198b19	-0.0005857214
33	0xbc7fb508	-0.015607126
34	0x3daab879	0.083359666
35	0x3b1c9ecc	0.0023898361
36	0x3bfa6d59	0.00764243
37	0xbc6c7429	-0.014431992
38	0x3d28d1bd	0.041215647
39	0xbc8f24e0	-0.017473638
40	0x3d5a6635	0.05332013
41	0x3c73adf5	0.014873018
42	0xbcba0ab2	-0.022710178
43	0x3d01d287	0.031694915
44	0x3db7b1f5	0.089694895
45	0x3c70673f	0.014673053
46	0xbc7cdc79	-0.015433424
47	0x3db9e89a	0.09077568
48	0x3cbbfb84	0.02294708
49	0x3e929db6	0.2863595
50	0xbd1e0a43	-0.038584005
51	0x3c1fb331	0.009747312
52	0xbc4825c6	-0.012216037
53	0xbd330e9c	-0.043715104
54	0x3dbfb14d	0.09359989
55	0x3e18a522	0.14906743
56	0xbb3ed8b2	-0.002912086
57	0x3d39e94c	0.045388505
58	0xbcee6cc5	-0.0291046
59	0xbcdd314e	-0.02700105
60	0xbd099c27	-0.033596184
61	0x3c0cae95	0.0085865455
62	0x3d4cfcd3	0.0500458
63	0xbc8730b3	-0.016502714
64	0x3d6a9629	0.05727211
65	0xbd3c7b41	-0.04601598
66	0x3d99880b	0.07496651
67	0xbcb795b1	-0.022410246
68	0xbce69627	-0.02814777
69	0xbda6c245	-0.08142523
70	0x3d0fe19f	0.03512728
71	0xbb7255e1	-0.0036977457
72	0xbcd1e32f	-0.025621025
73	0xbd6517f0	-0.05593103
74	0xbbf003f0	-0.007324688
75	0xbd283b97	-0.041072454
76	0x3d56a416	0.05240258
77	0xb9dc33a1	-0.00042000136
78	0x3d29ad0a	0.04142479
79	0x3dffb0ac	0.12484869
80	0x3e28af66	0.16473159
81	0xbd29fa93	-0.04149873
82	0x3ca30911	0.019901784
83	0xbaa73166	-0.0012755811
84	0xbd3ab2cd	-0.045580674
85	0x3cf4358a	0.029810686
86	0x3c913f0c	0.017730258
87	0xbcf059a3	-0.029339617
88	0xbd1e6859	-0.038673732
89	0xbd0af892	-0.03392846
90	0xbc3a6870	-0.011377439
91	0x3d0ba275	0.034090478
92	0xbd0eec8a	-0.03489355
93	0x3d4bf431	0.049793426
94	0x3a7299b4	0.0009254471
95	0xbd5df4e1	-0.054188613
96	0xbbf555c9	-0.007487033
97	0xbc50beca	-0.0127408
98	0xbbb58288	-0.005539242
99	0x3b1d7fc9	0.0024032465
100	0xbd9366a2	-0.0719731
101	0x3d5c2d2c	0.053754017
102	0xbc98c949	-0.018650668
103	0xbcecb653	-0.028895533
104	0xbb1f83bd	-0.0024339997
105	0x3d2e02c2	0.0424831
106	0x3e551bd9	0.20811404
107	0x3c2addf2	0.010428892
108	0xbbbc80c9	-0.005752657
109	0xbbc69614	-0.006060371
110	0x3c8e0e64	0.017340846
111	0xbb017dfd	-0.0019758933
112	0xbc8d35d2	-0.017237578
113	0x3cc6f6b0	0.024287552
114	0x3c934944	0.017979272
115	0x3cd3bd58	0.025847122
116	0x3b8a1344	0.0042137224
117	0xbce053e5	-0.027383754
118	0x3bc947b9	0.006142583
119	0x3cf89f62	0.030349437
120	0xbcbcb211	-0.023034127
121	0x3b7885a5	0.0037921455
122	0x3dc475ac	0.09592757
123	0xbc673859	-0.014112555
124	0x3b3547ca	0.0027661198
125	0xb95c3e86	-0.00021004127
126	0xbc669e8b	-0.0140758855
127	0x3d1e53b2	0.038654037

fc.2.weight f4 [3, 128]
0	0x3d25d999	0.04049072
1	0xbe7009a9	-0.23441185
2	0xbcfbff6c	-0.030761443
3	0x3ba2e16b	0.0049707196
4	0xbb6033a6	-0.0034210472
5	0x3cea4abf	0.028600095
6	0xbc0252ad	-0.007954282
7	0xbda1f73c	-0.07908484
8	0x3b121c91	0.002229486
9	0x3d95bb4e	0.07311116
10	0xbd841203	-0.06448748
11	0xbc881346	-0.016610753
12	0xbd01c018	-0.031677336
13	0x3ccf1551	0.02527872
14	0x3d6dd1c2	0.05806137
15	0xb9c67f37	-0.00037860285
16	0xbc4fc012	-0.0126800705
17	0xbd2ec303	-0.042666446
18	0x3c05d8d8	0.008169375
19	0x3dd56f14	0.10421577
20	0x3d1bb337	0.03801271
21	0xbd5b915e	-0.05360543
22	0x3a873d65	0.001031798
23	0x3b863c81	0.004096568
24	0x39cd4371	0.00039150895
25	0x3a9b1fd9	0.0011835053
26	0x3b995af3	0.0046800314
27	0x3dbdbd59	0.09264631
28	0xbc6474f1	-0.013943897
29	0xbc1ccb58	-0.009569965
30	0x3c0d660b	0.008630286
31	0xbd676ba7	-0.05649915
32	0x3cc61151	0.024178179
33	0x3c1ff743	0.009763542
34	0x3c9ba311	0.018998655
35	0xbd71c0d7	-0.059021797
36	0x3d31fa91	0.04345185
37	0x3d82253a	0.06354757
38	0x3d2324dc	0.039830074
39	0x3cab8209	0.020936029
40	0xbd2fde15	-0.042936403
41	0x3d004fa2	0.031325944
42	0x3d9f9063	0.077912115
43	0xbb8667f5	-0.004101748
44	0xbc48c5ce	-0.012254192
45	0xbda3655d	-0.07978318
46	0x3ef93e9a	0.48680574
47	0xbda7edfd	-0.081996895
48	0xbbb95312	-0.0056556547
49	0xbc7829a4	-0.015146647
50	0xbbf35a9e	-0.007426574
51	0x3bc5b592	0.0060336078
52	0x3da152d9	0.0787713
53	0xbd4fbfce	-0.05072003
54	0x3cb097ab	0.021556696
55	0xbb9bcc08	-0.004754547
56	0xbd3bc8b1	-0.04584569
57	0x3da2001c	0.07910177
58	0xbc7097d7	-0.014684639
59	0xbd4963ee	-0.049167566
60	0xba4cc3ed	-0.00078111776
61	0xbd829e52	-0.063778535
62	0xbc028095	-0.007965227
63	0x3d6ba1f8	0.057527512
64	0xbd020a6b	-0.031748217
65	0x3d5e518a	0.05427698
66	0xbd892640	-0.06696749
67	0x3aa8f774	0.001289113
68	0x3c91b55e	0.017786678
69	0xbcc05b8d	-0.023481155
70	0xbcba0455	-0.022707144
71	0x3d1adb16	0.037806593
72	0x3d35df85	0.044402618
73	0xbd5af962	-0.053460486
74	0x3d8e666a	0.06953128
75	0x3c67de36	0.0141521
76	0xb95d448c	-0.00021101738
77	0x3da897a8	0.08232051
78	0x3d00c8e0	0.03144157
79	0x3b621729	0.0034498668
80	0xbb8db8dd	-0.004325016
81	0xbda2b22e	-0.07944141
82	0x3e551dae	0.20812103
83	0x3d962cc8	0.0733276
84	0x3c5da354	0.01352771
85	0xbd7c466a	-0.06159059
86	0x3c1cd4c3	0.009572211
87	0xbd019240	-0.031633615
88	0x3ab71df1	0.0013970715
89	0xbd291f74	-0.04128976
90	0xbd361a79	-0.04445884
91	0x3c54b5f4	0.012982834
92	0x3d15b028	0.03654495
93	0x3bbe097c	0.0057994705
94	0x3ab650b0	0.0013909545
95	0xbe2f3538	-0.17110145
96	0xbdb104f1	-0.086435206
97	0xbda19490	-0.07889664
98	0x3d576e7e	0.052595608
99	0xbd2fc64e	-0.042913727
100	0xbff030d8	-1.8764906
101	0xbd4704ce	-0.048588566
102	0x3dbee70f	0.09321415
103	0x3d524b23	0.051341187
104	0xbbb1e91a	-0.005429399
105	0xbc8ce58c	-0.0171993
106	0xbd32f936	-0.043694697
107	0xbbcf92a1	-0.006334618
108	0x3ce506c2	0.027957324
109	0xbd7f6062	-0.062347777
110	0x3e4a4eb4	0.19756585
111	0x3c1b4ffd	0.00947952
112	0x3cc84497	0.024446769
113	0x3c916f43	0.017753249
114	0xbddf4a84	-0.109028846
115	0x3d6339ee	0.055475168
116	0xbd47424c	-0.04864721
117	0xbc0206f4	-0.007936228
118	0x3d53f7cf	0.05175
119	0xbc2d28e4	-0.010568831
120	0x3c84f5b6	0.016230445
121	0x3c003b9a	0.00782671
122	0xbb246731	-0.002508592
123	0xbd605b63	-0.054774653
124	0x3d8fb9f6	0.07017891
125	0xb9da9a35	-0.00041695093
126	0xbd01b362	-0.031665213
127	0xbbe2f56c	-0.006926229
128	0xbd1f9959	-0.038964603
129	0xbebfa1bd	-0.37428084
130	0xbe79dd33	-0.24400787
131	0x3c00271c	0.007821824
132	0xbaa9a40a	-0.0012942564
133	0xbc993d68	-0.018706039
134	0xbca0d39f	-0.019632159
135	0x3ea636b4	0.3246361
136	0x3c96140c	0.018320106
137	0x3ca6e21d	0.020371491
138	0xbd1a516e	-0.037675314
139	0xbc89137d	-0.016732926
140	0x3cd7b29e	0.026330288
141	0x3d1fed04	0.039044395
142	0xbd74461c	-0.059637174
143	0x3c5bce1d	0.01341584
144	0xbd9f295e	-0.07771562
145	0x3ad4c62a	0.0016233374
146	0x3d9cfaf1	0.07665051
147	0xbc022540	-0.007943451
148	0x3d15d446	0.036579393
149	0x3b96c199	0.0046007154
150	0x3da8b919	0.082384296
151	0xbb38278b	-0.0028099741
152	0x393738b4	0.00017473364
153	0xbbf980d2	-0.0076142335
154	0x3eae147b	0.34
155	0xbd270b25	-0.040782113
156	0x3d838eb3	0.06423702
157	0x3c21100f	0.009830489
158	0xbf052154	-0.5200398
159	0x3ddd8b4a	0.10817583
160	0xbd280f17	-0.041030016
161	0xbd27027f	-0.040773865
162	0xbe3d420c	-0.18482226
163	0xbd61ef8a	-0.055160083
164	0x3aad29dc	0.0013211328
165	0xbd9704de	-0.07373975
166	0xbc0c598a	-0.00856627
167	0xbc8fc312	-0.017549071
168	0xbdae4c79	-0.0851068
169	0xbcbdebea	-0.023183782
170	0x3d902075	0.07037441
171	0x3a440ada	0.00074784236
172	0xbc0c220e	-0.008553041
173	0x3e715abd	0.2356977
174	0xbcbd9f3a	-0.023147214
175	0xbc4d0cdd	-0.012515274
176	0xbb1cf2d6	-0.0023948452
177	0xb937804e	-0.00017500037
178	0x3db9c12d	0.090700485
179	0xbc061891	-0.008184568
180	0xbd485e11	-0.048917834
181	0x3d830123	0.06396701
182	0x3c74d696	0.014943739
183	0xbb8d89dc	-0.0043194126
184	0x3c973fee	0.018463101
185	0x3d0217f5	0.03176113
186	0xbcf8c735	-0.030368427
187	0xbd954c51	-0.07289947
188	0x3d7e41cf	0.06207448
189	0x3d7e8ad5	0.06214412
190	0xbe193cd5	-0.14964612
191	0x3daf1484	0.08548835
192	0xbba20530	-0.004944466
193	0x3c008f1f	0.007846623
194	0xbd13f034	-0.036117747
195	0x3ce0c792	0.027438913
196	0x3d4c9020	0.049942136
197	0x3c5726b4	0.013131786
198	0xbb9ae4d6	-0.0047269864
199	0xba90b307	-0.0011039682
200	0x3d41b72a	0.04729382
201	0x3d427cb7	0.04748222
202	0x3ca34b95	0.019933501
203	0x3af7a69a	0.0018894256
204	0x3b37463a	0.0027965442
205	0x3d49c368	0.04925862
206	0xbcc22e9e	-0.02370387
207	0x3a218e7e	0.00061628956
208	0x39bcd27d	0.0003601498
209	0x3dab8226	0.08374433
210	0x3dc7256e	0.09723936
211	0xbcfa91fb	-0.030587187
212	0xbb1ff756	-0.0024408898
213	0x3c93c2d6	0.018037241
214	0xbd6e7ff8	-0.05822751
215	0xbd8a54bf	-0.06754445
216	0x3c1b228b	0.009468685
217	0xbc38a39f	-0.011269479
218	0xba277c25	-0.00063890434
219	0x3e8551cb	0.26038966
220	0xba139fc3	-0.00056314113
221	0xbdc929f9	-0.09822459
222	0xbb818459	-0.0039525446
223	0xbf1c2e12	-0.610078
224	0x3d25e902	0.040505417
225	0xbc87c0be	-0.016571399
226	0x3d9ea8b9	0.07747025
227	0x3d20963d	0.03920578
228	0xbd65f59e	-0.056142442
229	0xbdca41de	-0.098758444
230	0xbbce9902	-0.006304861
231	0x3d3ce7de	0.046119563
232	0xbd8dce0f	-0.06924068
233	0xbb07d21f	-0.0020724607
234	0xbb8645d7	-0.004097681
235	0xbb0dccd5	-0.0021636982
236	0xbbee044e	-0.0072636968
237	0x3c9ffd88	0.019530073
238	0x3d2318ee	0.039818697
239	0xbd3e0073	-0.046387147
240	0x3ba61b04	0.0050691385
241	0x3ab0f3c9	0.0013500388
242	0x3d588e77	0.05287024
243	0x3dc92d80	0.098231316
244	0xbccc240e	-0.024919536
245	0xbcabe80c	-0.020984672
246	0xbd75cf39	-0.060012076
247	0xbb1175dd	-0.0022195496
248	0x3d84bbf3	0.06481161
249	0x3d961678	0.07328504
250	0xbb010253	-0.0019685223
251	0xbc4d7935	-0.012541105
252	0xbe0dd712	-0.13851574
253	0xba048792	-0.0005055602
254	0xbd14a80c	-0.036293074
255	0xba08305c	-0.00051951944

fc.2.bias f4 [3]
0	0x3cd2589d	0.02567702
1	0xbc87efe9	-0.01659389
2	0xbdbfcc90	-0.09365189
