cephalopod/alphazero/cephalopod_zero.pth (torch, 472936 bytes, 9 tensors)

conv1.weight f4 [64, 3, 3, 3]
000000 01 4b 17 be 80 6a 53 bd 9f 4b 8d bc ad 68 e0 3d
       -0.14774705 -0.05161524 -0.017247973 0.10957465
000010 52 11 2a 3e 84 1e 42 3e 58 de 4a 3e 89 0f 88 bd
       0.1660817 0.18956953 0.1981138 -0.06643588
000020 dd 2c da bc af 38 12 bd 24 d5 52 3e 40 8e b2 3e
       -0.02663272 -0.03569859 0.20589119 0.34874153
000030 c8 bb 57 3e 1c d3 39 3e b2 86 b8 3d 9a 21 e4 bd
       0.21067727 0.18146938 0.09010066 -0.111392215
000040 98 c5 a9 3e 25 2a 78 bd 9d e8 07 be 3a 75 94 3e
       0.33158565 -0.060587067 -0.13272329 0.28995687
000050 68 4c 18 3e a7 38 e5 3d a8 d2 7e 3e 32 af 80 3d
       0.14872897 0.11192446 0.24885046 0.06283416
000060 9f f0 a9 bd e7 48 15 bc dd 17 91 3e 15 d0 05 be
       -0.08297848 -0.00911162 0.2833852 -0.13067658
000070 a6 e6 f5 3d cb 28 34 3e 85 2d e4 ba b2 3b 22 be
       0.12006883 0.17593686 -0.0017408585 -0.15843084
000080 47 52 f9 bd c9 5d 0f 3e f2 ce 45 3e 19 73 bc 3d
       -0.12173896 0.1400062 0.19317225 0.09201641
000090 e2 26 73 bc 6f ba 81 bd b7 ca 91 3e 96 6e 81 3e
       -0.014840813 -0.063343875 0.28474972 0.25279683
0000a0 2f cf 18 3d f6 2a 9f 3c 4b 70 6c 3d 31 db 32 bd
       0.03730696 0.019429665 0.05772428 -0.04366607
0000b0 54 98 a1 3c c6 8f 5a bf 14 92 97 3e 4b ed e7 bc
       0.019725956 -0.8537563 0.29603636 -0.028311392
0000c0 84 f0 58 3b 1f ed ae be d6 d7 ad bc 6d c6 12 3e
       0.0033102343 -0.34165284 -0.021221083 0.14333506
0000d0 19 a6 6c bc 26 90 e5 3d c8 cd 74 3e 98 b1 79 3d
       -0.014443898 0.11209135 0.23906624 0.060960382
0000e0 f1 d7 6d 3e 5e e5 73 3d 47 d9 a7 bc e0 7d 42 3c
       0.23226906 0.059544913 -0.020489348 0.011870831
0000f0 bc ac 59 bd 83 e7 1b 3a 27 2b c7 bc d5 d2 ad 3e
       -0.053143248 0.00059472787 -0.024312569 0.33949915
000100 ef 63 00 3e 67 39 c0 3d 08 20 0a 3e 47 62 67 3d
       0.12538122 0.09385949 0.13488781 0.05649021
000110 31 b1 97 3d a7 2b c4 bd e3 ba a3 3e 03 0d 80 bd
       0.074068435 -0.095786385 0.3197852 -0.06252482
000120 52 4a 0f 3e 34 93 3e 3e 85 48 2f be 74 29 44 bb
       0.13993195 0.18610841 -0.17117508 -0.0029931935
000130 e6 52 5f 3e d0 5c 20 3b 36 1b 0f bc 06 9b 39 be
       0.21808967 0.0024469383 -0.008734515 -0.18125543
000140 9b 1a ee 3d 3a 96 df 39 a9 f8 4b bc 4e e8 32 bd
       0.11626168 0.00042645802 -0.012449422 -0.043678574
000150 59 8d 64 3d e4 4a 35 3e 55 b5 ba bc 9a eb 29 be
       0.055798862 0.1770435 -0.022791544 -0.16593781
000160 d6 2e b0 3c fd 2f c3 bd 81 ad 41 3e 9e aa 0f bd
       0.021506708 -0.095306374 0.18913843 -0.035074823
000170 eb fc c4 3d 70 35 7b be d0 f6 68 be c5 0b 69 3e
       0.09618553 -0.24532104 -0.22750401 0.22758396
000180 74 9a 19 bb 2b 7f 31 bd a2 69 4d 3d 22 8f 8c 3e
       -0.0023438009 -0.043334167 0.050149567 0.27452952
000190 58 31 79 bf 61 fa f3 3d f2 e1 4d bf 30 32 b3 bb
       -0.9734092 0.1191299 -0.8042289 -0.0054686293
0001a0 c5 89 85 be d7 b0 2b bd 78 1b a8 bc 61 cb 21 3d
       -0.26081672 -0.041916694 -0.02052091 0.039500598
0001b0 37 f5 f6 3c 4d b9 0f 3e f6 a5 7f 3e ec f8 23 be
       0.030146224 0.1403553 0.24965653 -0.16012925
0001c0 68 9c 22 3e 35 48 ef 3d c0 79 e5 3d c8 7b 8f 3d
       0.15879977 0.11683694 0.112048626 0.07006031
0001d0 a6 91 f2 bd 82 c2 14 3e 21 55 13 3e af 29 3f 3e
       -0.118441865 0.14527324 0.14387943 0.18668245
0001e0 ab 5a de bd 32 38 e7 3c 9c 85 09 3e 8a 32 bb bc
       -0.10857137 0.028225038 0.13429874 -0.022851247
0001f0 6c 16 fe bd cd 9c 62 3e 60 09 c4 3d 17 a5 d3 3d
       -0.124066204 0.22130127 0.09572101 0.10334223
000200 d4 29 d2 3d 0d 68 3a be fe 48 6a bd 71 c3 83 3e
       0.10261884 -0.18203755 -0.057198517 0.25735047
000210 10 d8 d3 bd 1a a9 87 3e 02 04 cd bc da 6d 2e bd
       -0.10343945 0.26496202 -0.025026325 -0.04258523
000220 60 24 4c be 89 a0 81 bd f9 60 1d 3e 51 d3 0d be
       -0.19935751 -0.06329448 0.15369023 -0.13850142
000230 f3 da ba 3d f6 da 06 bb f2 cc 27 3e e1 33 e2 3d
       0.091237925 -0.0020577288 0.16386774 0.11045051
000240 b6 1f 98 be 5e d0 8f bd 3a fc 92 3d 06 e0 c4 bd
       -0.29711694 -0.07022165 0.07177015 -0.096130416
000250 a9 37 52 be 00 57 60 3c ee 55 f5 bc 2c 16 c2 bd
       -0.20529045 0.013692617 -0.029948201 -0.09476885
000260 7e 15 54 3e 61 18 1c bf dc 1a 58 3e 3d d4 82 3e
       0.20711324 -0.609747 0.21103996 0.2555255
000270 58 2c 19 3b 84 b3 61 bf 65 33 02 be a9 ee 5b 3e
       0.0023372378 -0.88164544 -0.12714918 0.2147776
000280 d4 d0 cf 3d 67 c1 94 3d b6 9f 10 be db ea 07 3e
       0.10147253 0.07263451 -0.14123425 0.13273184
000290 ef 33 2c 3d f1 50 b5 bb d8 65 1d be 4d 90 d7 3d
       0.042041715 -0.0055333306 -0.15370882 0.1052557
0002a0 9d ad c6 3c 0c 6c b0 3d 87 03 59 bd 17 35 84 3e
       0.024252707 0.08614358 -0.05298188 0.25821754
0002b0 d4 b4 87 be 70 94 70 3d ef 5e 66 3b bb 23 23 bc
       -0.26505148 0.05873531 0.00351518 -0.009957249
0002c0 d0 02 36 3e a1 bc 52 3e b5 00 33 be b3 b2 81 3e
       0.1777451 0.20579769 -0.17480738 0.2533165
0002d0 19 fc 02 be 20 1c a2 3e f8 4f 67 3a fd 0b 96 be
       -0.1279148 0.31662083 0.0008823867 -0.2930602
0002e0 bb 6b 10 3e 49 9a 10 bb 0b 22 b3 bc 9a 57 4b bd
       0.14103596 -0.0022064617 -0.021866819 -0.04964409
0002f0 4b 56 ff bb 0d ff 0f be eb c9 93 3e e2 d9 88 3d
       -0.0077922693 -0.14062138 0.2886499 0.06682183
000300 78 25 16 bc ce 46 f0 3d 31 6c 56 be 96 03 b8 bc
       -0.009164207 0.11732255 -0.20939709 -0.022462647
000310 b7 d4 63 3e dd 66 1c bd 7f b0 42 be 3f ab 3a bd
       0.22249113 -0.038184036 -0.1901264 -0.04557347
000320 68 f2 27 be 17 4e 10 be 94 fb bd 3d 83 5d 43 bd
       -0.16401064 -0.14092289 0.092765 -0.0476966
000330 fe 20 7b 3e 04 5f a7 bc 9b 22 50 3e 3a e8 c3 3e
       0.24524304 -0.02043105 0.20325701 0.38263112
000340 f4 1f 70 3e 51 f7 27 3e a7 c5 07 3d 6f 94 11 be
       0.23449689 0.16402937 0.03314748 -0.14216779
000350 b2 50 b1 bd 89 65 95 3e e7 1a 0d be ea 04 78 be
       -0.086579695 0.29179028 -0.13779794 -0.24220625
000360 40 f8 9e 3c 14 99 15 3e f1 12 d3 bd 2e e6 14 3c
       0.019405484 0.14609176 -0.10306347 0.009088082
000370 fb 9d 7f bd 46 b4 90 3c 37 96 be bd ab e0 35 3e
       -0.06240652 0.017664086 -0.09305995 0.17761485
000380 47 d8 d3 bc a8 51 90 3c 35 b6 07 3e e3 de 2b 3d
       -0.025859965 0.017617062 0.132531 0.04196061
000390 73 20 a9 bd 45 ff 9c 3d 71 a0 11 3e 91 b9 73 3e
       -0.08258142 0.07665876 0.1422136 0.23801257
0003a0 08 23 5c be 4c 72 06 be 9d d0 c9 3c 7b ac b9 3e
       -0.21497738 -0.13129538 0.024635607 0.36264405
0003b0 07 de ef 3d 66 1d 5f 3e f5 41 32 bf 5f 0a 06 be
       0.1171227 0.21788558 -0.6963189 -0.13089894
0003c0 60 22 a5 bd 4e 7e af bd 74 97 e5 3d 4e 83 47 be
       -0.08063197 -0.085690126 0.11210528 -0.19483683
0003d0 5d fc 40 be 5a 34 74 3b 8f 54 07 3e 24 24 1d 3d
       -0.18846269 0.003726265 0.1321585 0.038364545
0003e0 d6 3c 3c be 97 68 35 be dd 3e 0c 3e 63 1c 92 bc
       -0.18382582 -0.17715679 0.13695855 -0.017835801
0003f0 f8 7f 35 be 46 f7 98 3e 5c 9d a4 3d c8 20 6c be
       -0.17724597 0.29876155 0.080378264 -0.2305938

conv1.bias f4 [64]
000000 96 b0 27 be ea d2 87 3b e0 ca 47 be a6 47 15 3e
       -0.16375956 0.004145016 -0.19510984 0.14578113
000010 e5 e9 2d be 3a 99 84 3d e6 41 c1 3c 2c 69 f3 bd
       -0.16983755 0.06474538 0.023590993 -0.11885294
000020 3f b7 f6 3d da 1d a2 3d 20 19 53 3d 83 2f 17 be
       0.1204667 0.0791585 0.051537633 -0.14764218
000030 50 10 e1 3d 56 3c b9 3d d0 71 bb bd 29 64 d2 3c
       0.109894395 0.09044711 -0.091525674 0.025682526
000040 53 94 03 3e fa c5 b0 3d e6 fb 0c be 6f e2 3f 3e
       0.1284955 0.08631511 -0.13767967 0.18738721
000050 d6 38 ce bd 0c a8 5e 3d a8 c8 e9 3d 74 4f 1a be
       -0.10069434 0.05435948 0.11415225 -0.15069371
000060 7f 93 05 3e 51 41 eb 3d 80 01 ba bd 96 1a b6 3d
       0.13044547 0.114870675 -0.09082317 0.088917896
000070 a1 5e 79 bd 96 87 bb bd b4 50 8c 3d c3 c4 31 3e
       -0.06088126 -0.0915672 0.068513304 0.17360215
000080 a0 62 43 be f2 d8 03 3e ad e2 22 ba 6b ec 01 bb
       -0.19080591 0.12875727 -0.0006213587 -0.0019824754
000090 98 28 40 3b 7c c6 f3 bc 2f 7e 9e bd 22 22 0b bd
       0.002932107 -0.02975773 -0.07738911 -0.0339681
0000a0 1a 43 35 3d 0e 49 d2 3d ab a3 ca 3d 67 58 ea 3d
       0.044253446 0.1026784 0.098944984 0.11442643
0000b0 5f f6 84 3c 98 37 41 be 47 9f 00 3e 82 1e 18 be
       0.01623076 -0.18868864 0.1256076 -0.14855388
0000c0 9f 08 76 bd 30 72 3f be 68 fd 28 be b2 bf 49 be
       -0.060066815 -0.18695903 -0.16502917 -0.19702032
0000d0 76 6d f8 3d 5b 1a 1e 3e 29 ec 81 3d fe 74 81 3b
       0.12130253 0.15439741 0.06343872 0.003950714
0000e0 fe 1a 81 bd 20 af 0c 3e 5e e9 28 3b f9 80 c2 bb
       -0.063039765 0.1373868 0.0025773863 -0.005935785
0000f0 0c bf ce bd ba 89 56 3d 62 34 aa 3c d7 c6 80 3d
       -0.10095033 0.05237744 0.020776931 0.06287926

conv2.weight f4 [64, 64, 3, 3]
000000 47 1a 22 3d 3d 97 88 bd 6a d0 db 3d 68 57 47 3e
       0.03957584 -0.066694714 0.10733111 0.19466937
000010 18 d8 6a bc da 28 49 3d 34 8b 96 3d 56 57 1d bc
       -0.014333747 0.049111225 0.0735077 -0.009603342
000020 0c d5 20 bc ad 89 c1 bd 0c 02 c8 3d 22 8b 58 3e
       -0.009816419 -0.09450088 0.097660154 0.21146825
000030 8b 12 24 bd aa 90 01 be 8c 2a eb bc bc 26 e3 3d
       -0.040056746 -0.12652841 -0.028706811 0.11091372
000040 6f 0b f4 bc e5 87 8f bc e1 bd 04 3e 5d 1e a2 bd
       -0.029790608 -0.017520854 0.12963058 -0.079159476
000050 7b 24 b4 3d f9 85 be 3d 3b aa 38 bd 2a b3 21 be
       0.087960206 0.09302897 -0.04508422 -0.15791002
000060 cf 73 05 3d 6b fa 8c bd 49 cb ba 3d 1f 20 a9 3d
       0.032581147 -0.06883701 0.09120805 0.0825808
000070 01 5e 33 be d9 ad b2 bc b1 6f bc bc 43 90 ad 3d
       -0.17516328 -0.021811413 -0.023002477 0.08474781
000080 e7 b1 27 be e6 05 e9 3c 15 7a 7a bd 0c 41 f3 bc
       -0.16376458 0.028445195 -0.061151583 -0.029694103
000090 02 13 df bc 49 e6 85 3c b4 3e f4 3c 93 1d 67 bd
       -0.027230743 0.01634516 0.029815055 -0.05642469
0000a0 68 e8 82 3c 16 2e a1 bd d5 18 97 3d 3a 87 55 3d
       0.01597996 -0.07870118 0.07377783 0.052130915
0000b0 74 62 53 3d 29 07 81 bd 47 be 8d 3e ca ed f6 3d
       0.051607564 -0.06300194 0.27684233 0.120570734
0000c0 30 61 29 be 51 6a ab bc 7e cd 1b 3d fa 2d 0c 3e
       -0.1654098 -0.020924719 0.03803777 0.13689414
0000d0 7a ec f7 3b a6 a7 03 3d f5 3f ab bd 74 8f e5 bc
       0.007566032 0.032142304 -0.08361808 -0.028022505
0000e0 12 f6 30 bb af c2 6d bc 2c 12 d6 bc 1c 26 f8 bb
       -0.0027002138 -0.014511748 -0.026131712 -0.0075729024
0000f0 77 67 67 bd 9c d2 66 3d f6 51 5c 3d 36 b2 a4 3d
       -0.056495156 0.056353197 0.0537891 0.080418035
000100 02 2c 12 3d 69 f0 39 3d ce 48 5c bd a9 8e aa bd
       0.0356865 0.04539529 -0.05378037 -0.083279915
000110 c8 97 4c be 91 80 05 3d 73 d9 11 bd f4 cc ca bc
       -0.19979775 0.032593314 -0.035607766 -0.024755932
000120 9e 8e 09 3c 1e 48 30 3d 99 d8 28 bd ab fa 38 3d
       0.008395819 0.043037526 -0.04122219 0.04516093
000130 2a 66 25 bd fe 91 41 bd e3 a2 d0 bc 16 9a 33 3d
       -0.040380634 -0.04725837 -0.025468295 0.04384812
000140 28 fd 23 3d b9 bd 8b bc 25 82 91 3d 2c f6 26 3c
       0.04003635 -0.01705824 0.07104901 0.010190528
000150 3a a8 4b be ba 4a db 3d 71 05 87 bd ae a8 d1 bc
       -0.19888392 0.10707612 -0.06592835 -0.025593128
000160 d7 cb f0 3d a6 02 2a 3d db 48 54 3d 26 ef b8 bd
       0.11757629 0.041506432 0.051827293 -0.09029989
000170 59 dd 1b bd f4 97 17 3e 66 5f b5 3d 6c e1 64 3c
       -0.03805289 0.1480406 0.088560864 0.01396976
000180 8d 03 b9 bd 42 bf b5 3b eb 50 8b 3d b4 f8 e3 bc
       -0.090338804 0.0055464813 0.06802543 -0.027828552
000190 64 ba 2d 3d be 5b b7 ba 1c 97 48 bd b7 ef fb bc
       0.042414084 -0.0013989133 -0.048972234 -0.030753953
0001a0 bc d6 8b bd 7a 40 04 be e7 1c 77 bd c9 fb a1 bc
       -0.06828067 -0.12915221 -0.060330298 -0.01977338
0001b0 8c ac 81 bc 44 c3 65 3d 7b 93 95 3b 52 1e 12 bc
       -0.015829347 0.056094423 0.0045647 -0.008918362
0001c0 e5 1f bb bd 79 c0 ae 3c 82 9e 18 3d 6b 2f 86 3d
       -0.09136943 0.021332012 0.03726054 0.06552013
0001d0 e9 c3 a4 3c cb 2d 84 bc 74 e7 41 3d 70 15 61 3b
       0.020112948 -0.016135117 0.04733987 0.0034345053
0001e0 24 60 93 bd a4 fa 74 bd 3a d8 fa 3c 02 f3 8e bc
       -0.07196072 -0.059809342 0.030620683 -0.01744986
0001f0 17 e0 9b 3b ad 4b 07 3d 37 1d a1 3d 73 59 cd bc
       0.004756938 0.033031154 0.078669004 -0.025067067
000200 13 8b 04 bd d1 37 31 bd 22 bb 8a bc 87 c5 da 3c
       -0.032359194 -0.04326612 -0.016934935 0.026705517
000210 25 93 45 3d 88 13 2f bd db 90 5d 3c 9f c9 b3 3d
       0.04823603 -0.042743236 0.013523306 0.087786905
000220 82 02 8e bc 3a bc 83 3d 43 c9 71 3c 6f 47 22 3d
       -0.01733518 0.06432386 0.014757457 0.039618906
000230 39 13 fd bd 0d 55 68 bd 92 3a c9 3d 38 5b e0 3d
       -0.12357182 -0.056721736 0.098256245 0.109548986
000240 f9 65 03 bd 18 8f 69 3d 16 4f 3b 3d 73 4d ab bc
       -0.03207967 0.05702123 0.04572972 -0.020910954
000250 f0 1d 3d 3c 9f 36 02 be 67 e0 c0 3d 47 8b 92 3d
       0.011542782 -0.12716149 0.09417801 0.07155471
000260 ad 5c 91 3d 1e 06 64 3c 10 33 4a bd ed 62 51 3d
       0.070977546 0.013917474 -0.049365103 0.051119734
000270 fe 91 06 be ae 9b 1c 3d d8 77 06 b8 8e 85 9b bc
       -0.13141629 0.038234405 -3.2059703e-05 -0.018984582
000280 fa 8c 52 3d 24 bd b7 bc ab 2d b0 3d 59 a4 82 3d
       0.051403977 -0.022429056 0.086024605 0.06379003
000290 02 13 2c 3d 5b fd 0a be ab 6f e0 3d 19 01 65 3e
       0.042010315 -0.1357321 0.10958799 0.223637
0002a0 21 ab 07 3d 9e a2 90 3d 2c 01 0a 3d 04 6c 02 3d
       0.033122186 0.07062267 0.033692524 0.031841293
0002b0 65 15 33 3e 87 1a 29 3c 68 37 ef 3b 22 0a b8 3d
       0.1748863 0.010321266 0.007300306 0.08986308
0002c0 e9 3f 1b bd 0e 8e 20 3d e8 51 96 bc 72 af 9f bd
       -0.037902746 0.039197974 -0.018349603 -0.077971354
0002d0 63 5a 91 3d 21 0a a0 bc cb 96 ef 3c e1 97 da bb
       0.07097318 -0.01953608 0.029246708 -0.0066709374
0002e0 4e 1e 12 3d a8 d4 96 bc 94 de a5 bc ef c7 b3 3c
       0.035673432 -0.01841195 -0.020247735 0.021945922
0002f0 e7 38 61 3d 50 c7 fd 3c ce 8a af 3d e5 0b bc bc
       0.054985907 0.030978829 0.08571397 -0.02295489
000300 fc c7 70 be b4 5c d4 bd 45 97 eb bc b6 31 33 3d
       -0.23513788 -0.10369244 -0.028758654 0.04374858
000310 b0 e3 2d bd 34 24 c2 3d bc 02 83 3d 29 5e 2a 3d
       -0.042453468 0.094795614 0.06397006 0.041593704
000320 de 40 f8 bc 0f 07 d2 bc a3 b1 a1 bc 3c 4c 87 bd
       -0.030304369 -0.025638131 -0.019738024 -0.066063374
000330 b0 ed 35 3c 85 85 e0 3c 5e d9 e6 3b d3 f3 41 3c
       0.011104032 0.027407417 0.007044955 0.011837917
000340 e9 da a0 bd 1b 77 be bd d2 b2 29 bd 20 2f a6 bc
       -0.07854254 -0.09300061 -0.041430302 -0.020286143
000350 5f 56 2c be e8 1b b6 bd 7f 8b 63 bc f4 73 aa bd
       -0.16829823 -0.088920414 -0.013888239 -0.083228976
000360 53 14 8d bd 3b 9f 1c 3d 4f c9 d9 3c 11 f8 51 bd
       -0.06888642 0.03823779 0.02658525 -0.051261965
000370 b6 d3 22 bd 7c f1 14 bc 59 ca 8e bc fb e4 a7 bd
       -0.039752685 -0.0090907775 -0.017430471 -0.081979714
000380 ba 1c 73 bd f3 ac 44 bd b3 52 91 3c 36 be 90 3d
       -0.059353568 -0.0480165 0.01773963 0.0706753
000390 cb a9 9a 3c 23 60 f8 3b 74 6c c4 3b f1 39 28 3d
       0.018879792 0.0075798198 0.005994374 0.041070882
0003a0 ed 05 b4 3d d5 a4 24 3c 75 42 aa 3d 25 95 fb 3d
       0.08790193 0.010049065 0.08313457 0.122843064
0003b0 7f 5f 8a 3d ea b5 c1 bd be 0f 97 bc 95 b0 2f bd
       0.06756496 -0.094585255 -0.018440124 -0.04289301
0003c0 b3 7b 6e 3d cd e2 07 be 68 96 0a 3d 4c 7b 17 bd
       0.058223438 -0.13270111 0.033834845 -0.03698282
0003d0 c6 d7 79 3b bf 75 ba ba d6 e9 84 3c 2d 51 b8 bd
       0.0038122996 -0.0014225765 0.016224783 -0.08999858
0003e0 d6 4b bc bc 34 2b 58 bd 68 64 95 bd 16 1e af ba
       -0.02298538 -0.052775577 -0.072945416 -0.0013360407
0003f0 44 49 a9 ba c4 42 f9 38 5a 19 a7 bc b6 85 67 3d
       -0.0012915512 0.00011885681 -0.02039783 0.056524

conv2.bias f4 [64]
000000 ab 38 ab bc b5 c0 c1 bc 93 09 6a 3c 27 9f 22 3c
       -0.020901045 -0.02365146 0.014284509 0.00992564
000010 04 96 6b bd e6 8b 71 3d c4 d5 e5 b9 7c b5 45 3d
       -0.057516113 0.05897131 -0.00043837551 0.04826878
000020 c7 3f dd 3b 3c b0 d8 bb 4c 57 c7 bc 95 ad a4 bc
       0.0067519876 -0.0066128056 -0.024333619 -0.020102302
000030 c7 d6 a3 3b 2e 14 5e 3c a8 5c d4 bc 7c d4 11 bc
       0.0049999687 0.013554616 -0.025923088 -0.008900758
000040 9f 97 62 3d 30 75 1f bb 76 f5 82 3d f2 5e 8f 3b
       0.05532038 -0.0024331324 0.06394474 0.004375332
000050 4b 99 24 bc 3f cb 2f bd b3 dd 81 bc ae 53 46 3d
       -0.0100463135 -0.04291844 -0.015852785 0.048419647
000060 3b 2e 2d 3c 3b 33 8c 3c df d2 5d 3d c1 5f f5 3b
       0.010570104 0.017114272 0.05415618 0.0074882214
000070 12 fa 05 3c f1 17 56 3c a7 1c 12 bd 76 cd 80 bd
       0.008177297 0.0130672315 -0.035671856 -0.062891886
000080 d1 ae 95 3c 80 9f a1 3c bd cc 14 3d 04 7c 48 bc
       0.018271836 0.019729376 0.036328066 -0.012236599
000090 61 3a cb 3c 13 1a b4 3c a8 4c 95 bc 6a f9 e0 3c
       0.02480811 0.02198509 -0.01822503 0.02746268
0000a0 f8 ff 42 3c 08 97 88 bc 44 7f 84 bb 46 e9 e0 3c
       0.011901848 -0.01667358 -0.0040434916 0.027454983
0000b0 0e 04 88 3d c6 00 4a bd 5a 32 e6 bb 4c bd c1 3c
       0.06641398 -0.049317144 -0.0070250453 0.023649834
0000c0 aa f7 aa 3c a9 9f 07 3d 63 02 82 3c 7a de ca bc
       0.020870049 0.03311125 0.015870279 -0.024764288
0000d0 de 2b 95 3d e9 e1 f0 3b e3 7f ae 3b 55 36 d8 bc
       0.072837576 0.0073511493 0.005325304 -0.026393095
0000e0 e9 86 31 3d f1 98 53 3b 06 0c 67 bd 26 f9 1c 3c
       0.04334155 0.0032287205 -0.05640795 0.009580886
0000f0 29 66 eb 3c ad b5 12 3d a6 39 ca ba 14 c0 79 bc
       0.028735237 0.03581779 -0.0015428558 -0.015243549

conv3.weight f4 [64, 64, 3, 3]
000000 7d a6 31 3c 4e 3c a8 bd 89 31 c5 bc 43 59 54 bc
       0.010842917 -0.08214627 -0.024071472 -0.012960735
000010 34 c0 dc 3c 86 c0 d8 3c ef 9d 90 bd c8 37 d3 3c
       0.026947118 0.02645899 -0.070613734 0.025783435
000020 97 9e 18 3d b0 38 7e bc 44 00 1b bd df cb 9e bc
       0.037260618 -0.015516445 -0.03784205 -0.019384323
000030 36 09 8c 3c 28 73 39 3d 6f 07 38 bd 08 04 f1 3c
       0.017094236 0.045275837 -0.044928964 0.029420868
000040 e4 3d 60 bd 78 bc 93 bd 1c ad 92 3d ef 25 9a 3b
       -0.054746523 -0.07213682 0.07161924 0.004704229
000050 d1 47 e7 bd c7 11 cd bd d1 e1 80 3d e1 b7 03 3c
       -0.11292995 -0.100131564 0.06293071 0.008039446
000060 3c 59 10 3e c5 b8 41 3c 52 d5 32 3d cd 01 96 be
       0.1409654 0.011823838 0.04366047 -0.2929825
000070 82 a2 9d 3c a1 b6 ee bc 5a 1a df 3b 57 d4 41 be
       0.019242529 -0.029139819 0.0068085613 -0.18928657
000080 02 bc 61 3d 95 03 f8 bd cc 38 29 3e c8 1b c8 3d
       0.05511094 -0.12110058 0.16525573 0.09770924
000090 03 c3 b9 3d ff 6c 92 3d b5 e3 c1 bd 61 df 3d 3d
       0.09070399 0.071496956 -0.0946726 0.04635561
0000a0 94 19 46 bd 8d 6d e4 bd ef 90 7a 3d 98 fe ef bd
       -0.048364237 -0.11153708 0.061173376 -0.11718482
0000b0 7a db 99 3c 71 8f d8 3d 5a 9e 81 be 83 72 cf 3c
       0.018781412 0.10574234 -0.25316125 0.025323158
0000c0 15 37 5e be 93 41 d6 bb 0c c7 57 be 7d 14 1a bb
       -0.217007 -0.006538579 -0.21072024 -0.0023510747
0000d0 57 5f c6 3d 74 08 85 bd c0 4b 87 3d 3a 9e cc bb
       0.096861534 -0.06495753 0.06606245 -0.006244448
0000e0 b5 d5 12 3d cb b1 11 bd 64 53 b4 3d 76 47 82 bd
       0.03584834 -0.035569947 0.08804968 -0.06361286
0000f0 9c 4f 0d 3d d8 9e bb 3d e3 fd c9 bd 81 18 50 bb
       0.03449975 0.091611564 -0.09862878 -0.0031752887
000100 f1 59 1e 3d 38 cd 40 bd bb 3e a8 bd 36 26 5f 3c
       0.038659994 -0.04707071 -0.0821509 0.01361995
000110 e9 ca 41 3d d5 0f a6 3c e7 cd d5 bc dd 32 06 bd
       0.04731265 0.020271221 -0.026099158 -0.03276335
000120 ea 56 4d bd 33 e2 4d bc 29 57 8d 3d 0e 90 0f 3e
       -0.050131716 -0.012566137 0.0690139 0.14019796
000130 f2 cb 01 3d 8e 0c 05 3c b1 49 e7 3d b8 24 76 bd
       0.031688638 0.008120669 0.112933524 -0.06009361
000140 50 0d 24 bd 9c 4a 88 bd 42 85 cd 3d d7 f6 da 3c
       -0.04005176 -0.066548556 0.100351825 0.02672903
000150 74 b5 8a 3d 9a 24 ee bd 2c c8 6f bc f7 33 c3 bd
       0.06772891 -0.11628075 -0.014635127 -0.09531396
000160 09 db 56 3c d3 29 1f 3d ae b2 72 bc 1f 81 e7 bc
       0.0131137455 0.038858246 -0.014813108 -0.028259812
000170 2a 65 86 bd 30 10 a4 bd bc 78 56 3d e7 68 a2 bc
       -0.06562264 -0.080109 0.052361235 -0.019825412
000180 02 39 43 bb 88 5a 5e bd 88 21 15 3d 20 94 92 3c
       -0.0029788618 -0.054285556 0.03640893 0.017892897
000190 77 97 a5 bd f7 c8 85 3d 14 32 b4 bd c9 f0 4f 3d
       -0.0808553 0.065324716 -0.08798614 0.05076674
0001a0 18 29 bd bd f1 7f 96 3d 5c f5 97 bb 88 51 8f 3c
       -0.09236354 0.07348622 -0.0046374034 0.017494932
0001b0 a4 58 92 bd 5c 52 be bd 96 8f ee bc 7d a8 0c be
       -0.07145813 -0.092930526 -0.029121201 -0.13736148
0001c0 55 d3 b0 3a be 3f 4f 3d e7 36 a7 3d 73 fd d4 3d
       0.0013490716 0.0505979 0.08164769 0.10399904
0001d0 74 0f d4 bd 2c 6e a2 bd 64 72 26 3c 3b 3c eb 3c
       -0.1035451 -0.0793117 0.010159109 0.028715244
0001e0 2b 49 e5 3b 11 09 df 3d 67 da 49 bd 1b c2 8b 3d
       0.0069972477 0.10890401 -0.04928055 0.06824132
0001f0 a7 90 65 bd 51 29 95 bd f2 1e c8 bc 82 77 a0 bc
       -0.056046154 -0.07283271 -0.024428818 -0.019588236
000200 48 a0 88 3c 30 b1 06 bc 87 f4 69 bb cb 16 b8 bc
       0.01667799 -0.008220956 -0.0035698728 -0.022471806
000210 87 ec da bc ad c8 6d 3b 9e 8c da bb 16 27 10 3d
       -0.026724113 0.0036282942 -0.006669595 0.035193525
000220 65 3b 29 3d bb 93 c1 3c 1f c0 b6 3d aa 2f 3e 3c
       0.04131641 0.023630014 0.08923363 0.011608044
000230 7b da d5 bc 1a a9 a3 3c b0 fa a7 bd 04 ae 27 3c
       -0.026105156 0.019978095 -0.08202112 0.01023436
000240 07 4f 0d bd c6 c1 51 bd c3 13 2f 3d 76 f1 22 be
       -0.034499194 -0.051210187 0.042743456 -0.15912423
000250 14 9c 81 bd 8d 46 fd bd 22 f0 ee 3d 90 73 3f 3d
       -0.06328598 -0.12366972 0.116668954 0.04674107
000260 11 ca 65 3d 17 08 c5 bc 37 9f 6c 3c 2f d0 5c 3d
       0.05610091 -0.02405171 0.014442257 0.053909477
000270 05 80 64 bd a9 42 82 3d 13 e2 8a bc 49 39 82 bd
       -0.05578615 0.06360371 -0.016953504 -0.063585825
000280 e4 82 c2 3d ec 22 8c bd 0a 94 83 3d a5 b6 26 bd
       0.09497622 -0.06842598 0.064247206 -0.040701527
000290 d2 7f b0 bd e9 3e 99 bd ed c7 53 3c 49 d6 20 bd
       -0.0861813 -0.07482702 0.012926084 -0.03926686
0002a0 b4 fc 26 3e 61 28 43 3d 4b c7 d7 bd a0 97 12 3d
       0.16307336 0.04764593 -0.10536059 0.035789132
0002b0 e3 56 89 3c 8b 4e f4 bd 03 48 fb 3c 20 51 87 bc
       0.016765064 -0.119290434 0.030673986 -0.016518176
0002c0 c1 8a af bc 4b c2 1b 3d b2 50 54 bd c6 b8 2d bc
       -0.021428468 0.03802709 -0.05183477 -0.010603135
0002d0 f5 ef 7e bd 3f 4a b7 3d 2d ac 16 3e 0c 81 84 3d
       -0.06224056 0.08949708 0.14714117 0.06469926
0002e0 d0 f3 3d bd 23 cc b0 bc 68 ca 0e be c2 48 24 bc
       -0.046375096 -0.021581715 -0.139444 -0.010027112
0002f0 c3 62 8c bc e2 bc c4 3b b5 c0 83 bc 00 8e 9d bc
       -0.017136937 0.006003962 -0.0160831 -0.01923275
000300 20 48 ed bc 95 51 a9 3c ca c5 eb bc f4 27 05 3d
       -0.028965056 0.020668784 -0.028780837 0.032508805
000310 6b 7e 11 3d c7 ec d6 3b f2 86 5e 3c f8 3f 47 bd
       0.035520952 0.006558988 0.013581978 -0.04864499
000320 a9 b0 b0 bd c9 16 11 be 62 43 09 3b 6c e8 e5 bd
       -0.08627445 -0.14168848 0.0020944704 -0.112259716
000330 03 4a bc 3b 6a f6 94 3d 2d eb 13 3d 4c a5 06 3e
       0.0057461276 0.07273562 0.036112953 0.13148993
000340 c9 89 fd bd d9 61 94 3c 96 5b 82 bd ec 84 85 3d
       -0.12379796 0.018113064 -0.06365125 0.065194935
000350 85 2d 77 3d 85 ce 97 bd 1a d5 e4 bd 17 49 13 3d
       0.060346145 -0.07412437 -0.111734584 0.035958376
000360 f6 27 cd bd d8 51 b0 bd 7b 7b 7d bc 1a bc 8c 3c
       -0.100173876 -0.086093605 -0.015471335 0.017179538
000370 db 71 1b bd 32 26 40 3d ff f7 38 3d 26 1a 6f bc
       -0.037950378 0.046911426 0.045158383 -0.014593637
000380 8c ea 4a bc 95 b0 67 3c 5c 5c 06 bd 75 a0 9b bc
       -0.012385022 0.0141412215 -0.032802925 -0.01899741
000390 24 1f 41 3d 6e d5 88 3c 2d 8e 27 bb d4 1b b1 3d
       0.04714884 0.016703334 -0.002556692 0.08647886
0003a0 fc f9 12 3c 11 6e b3 bc 88 8f 37 be 08 d2 ae 3d
       0.008970734 -0.02190307 -0.17925847 0.08536154
0003b0 6a 87 91 bd e8 89 f0 bc da 29 29 be 7d 54 31 3d
       -0.07105906 -0.029362634 -0.16519871 0.043293465
0003c0 63 3d 51 3e 34 d7 0e bd ff 84 1c 3e 50 7b eb bd
       0.20433573 -0.034873202 0.15285109 -0.11498129
0003d0 f8 ce cf 3d 2a 79 02 bd a1 0a 66 3d 28 d0 30 bd
       0.10146898 -0.031853832 0.05616248 -0.043167263
0003e0 d7 70 6f bd e7 f3 c2 3c 8f d5 e7 bc 1e 35 e1 3c
       -0.05845722 0.023797942 -0.028300075 0.027491149
0003f0 3f bc 91 bd ff 93 95 bd 2a c9 89 bb 71 d3 8e bd
       -0.07115983 -0.07303619 -0.004204889 -0.06973923

conv3.bias f4 [64]
000000 fc 49 17 3d 8c 62 36 3d 4b a4 32 bd f5 8e 73 3d
       0.03693579 0.044527575 -0.043613713 0.059462506
000010 0b 5b 12 3c 3d 80 09 bd aa c5 64 3d 87 09 c8 3c
       0.008932839 -0.033569563 0.05585257 0.024418605
000020 79 d8 76 bc b0 40 b9 bc 79 f4 08 bd 62 33 06 3d
       -0.01506626 -0.022613853 -0.033436272 0.032763846
000030 2b d1 93 3b b7 a9 98 bc 73 be 0e 3d f0 f5 4c 3d
       0.0045110187 -0.018635614 0.034849595 0.05003923
000040 e2 0e 30 3c b6 eb 83 bd 4c c0 93 39 1d ae aa 3c
       0.010745736 -0.06441443 0.00028181297 0.020834977
000050 87 88 0c 3d d3 87 a1 3d 16 09 bc 3c 55 5e 50 3d
       0.03430989 0.078872345 0.022953551 0.050871212
000060 49 52 bd bc df a0 2b bd bd 70 48 3c 3f 59 1d bd
       -0.023110526 -0.041901466 0.01223391 -0.03841519
000070 7a 54 40 3c fb 1c be bd fa 54 0a b9 1a bb 2c 3a
       0.011738891 -0.09282871 -0.00013192362 0.00065891596
000080 a5 0b 45 3d 27 d2 34 3d b6 f2 19 bc d6 0c 04 3d
       0.04810681 0.04414573 -0.009396246 0.032238804
000090 69 26 5d 3d 98 6f 26 3d 4f 5d 43 bc ba 92 c4 bc
       0.05399171 0.040633768 -0.011924102 -0.023995746
0000a0 3f 5b 15 bc 1d 82 8d bc f2 67 50 3d 7f ec 9b 3c
       -0.009115993 -0.017273957 0.05088038 0.019033669
0000b0 69 a0 46 3b 38 11 29 3d 2a 8e 44 3d 4e 3c a9 3c
       0.0030308014 0.041276187 0.04798714 0.020658638
0000c0 01 71 20 3c 2c fa 9a 3b 2b 44 98 3c fd 4b f2 3c
       0.009792567 0.00472953 0.018587193 0.02957725
0000d0 e3 67 e1 bc e6 68 0b 3d 18 f7 f4 3c ab ba 1f 3d
       -0.027515357 0.034035586 0.02990298 0.03899638
0000e0 48 8f 9e bd c3 c4 01 3d 22 f8 38 3d 42 91 7c bc
       -0.077421725 0.031681787 0.045158513 -0.015415492
0000f0 8a c3 63 bc 81 ca e3 3c 37 39 ed 3b 69 fd c8 3c
       -0.013901601 0.027806522 0.0072394866 0.024534898

fc_policy.weight f4 [25, 1600]
000000 b7 a8 c1 3d ae da a0 bc 1a 83 59 3d ab ad 3a 3d
       0.09456008 -0.019635525 0.053103544 0.04557578
000010 e0 64 09 bd 64 37 f4 bd d1 75 04 3e de 41 3d 3d
       -0.033543468 -0.119246274 0.12935568 0.046205394
000020 1d 3a bf 3a 7c 38 a2 3b 28 b2 32 3d 64 b3 63 bd
       0.0014589463 0.004950581 0.043626934 -0.055591002
000030 15 fb 1b 3d a1 73 9d bb 2e f6 fd 3a 0b 6e 8f 3b
       0.038081247 -0.004805044 0.0019375735 0.004377132
000040 ea 73 4d bc ee 7d 8e bd 10 3b 2c bc 72 57 fc 3c
       -0.012539843 -0.06957613 -0.0105121285 0.030803416
000050 ce 15 0c bd 69 6d 59 3d 37 23 20 bd ab ba 0c 3d
       -0.034200482 0.053082857 -0.039096083 0.034357708
000060 d8 17 0b bd e8 a6 2d 3e 6b a6 24 3c ec dd 40 3c
       -0.033958286 0.16958201 0.010049443 0.01177166
000070 c7 5c 4a 3d ea 2f 0c bd 4b 94 6f bd 8e 10 44 3d
       0.049404886 -0.034225382 -0.058491033 0.04786735
000080 12 87 32 3d 6e 7b 81 3d 66 c0 34 bd ce f7 a2 3c
       0.043585844 0.063223705 -0.044128798 0.019893553
000090 6c 20 da bc 40 db fd 3b e4 14 bc 3c 2f e7 d6 3d
       -0.026626788 0.007747084 0.02295918 0.104933135
0000a0 0a b1 51 3d 84 25 4b bc 64 ac a9 3d 94 3a 13 bd
       0.05119423 -0.012399081 0.08284834 -0.035944536
0000b0 88 a3 8e ba 8d e9 05 3c eb b6 a2 3d 80 47 ea bc
       -0.0010882476 0.008173359 0.07945045 -0.028598547
0000c0 18 c9 a9 bc a7 a7 6a bd 6b d3 38 be 64 58 be 3d
       -0.020725772 -0.057288792 -0.180494 0.09294203
0000d0 c6 98 46 3d 44 0c c8 bc 24 9d 51 3c 36 3e de 3d
       0.04848554 -0.024419911 0.012793813 0.108517095
0000e0 7b c0 df 3b 56 b5 d9 3c 84 c0 48 bd 7f 40 5a 3c
       0.0068283654 0.026575726 -0.049011722 0.013321041
0000f0 d6 ab 42 3c 30 12 21 bb 92 21 2f 3d 4e d6 e7 3b
       0.011881789 -0.002457749 0.042756625 0.0070751077
000100 02 4a 84 bd 20 40 c9 bc cb 72 4c 3c e2 ae 13 bd
       -0.06459428 -0.02456671 0.012478541 -0.036055453
000110 89 bf 13 bd c5 25 76 3c 20 b3 1d 3d 10 d9 5a 3d
       -0.036071334 0.015023653 0.038500905 0.053429663
000120 68 30 d6 3c 65 d1 3e bd 02 f1 ab 3d 5c 7b 81 3c
       0.026146129 -0.046586413 0.08395578 0.015805893
000130 7d 92 03 3d 37 77 34 3d 1d 8f 82 3a 0f ed 1f 3d
       0.032122124 0.044059005 0.0009960864 0.039044436
000140 41 de 08 bc 3e 21 51 3d 09 65 50 3d f6 94 03 3c
       -0.008353771 0.051057093 0.050877605 0.0080311205
000150 bb a5 0d bc 5b 59 17 3d 15 99 1b 3e f9 21 2f bd
       -0.00864547 0.03695045 0.15195115 -0.04275701
000160 a7 f1 e7 3c e4 fe 9b 3b b3 d5 08 3d 9d bc 1a ba
       0.028313471 0.00476061 0.033406924 -0.00059027394
000170 a4 37 0e 3d e5 24 03 bd 5a 75 d8 bd 62 df 2f 3c
       0.03472103 -0.032017607 -0.10569258 0.010734411
000180 5a f7 2e bd 61 e4 90 3d 02 59 8a 3c d7 23 d9 3d
       -0.04271636 0.0707481 0.016888145 0.10602539
000190 6d 12 69 3d 93 e5 95 3d e6 e4 d7 3c e8 a2 d0 3c
       0.056902338 0.073191784 0.026354264 0.025468305
0001a0 90 82 1f 3d b1 60 50 bc 04 f7 00 3e 01 2c b8 3b
       0.038942873 -0.0127183655 0.12594229 0.00562048
0001b0 36 ca 3a 3d d0 42 97 bc a1 2b 95 3d d8 94 da bc
       0.045603 -0.018464476 0.07283712 -0.026682302
0001c0 46 82 c5 bd 3b c8 8b bb ea 60 fc 3a e2 2b 87 3d
       -0.09643988 -0.0042658127 0.0019254957 0.06600167
0001d0 d2 ce ba ba e0 32 c8 bd e1 77 83 bd e9 d5 62 bc
       -0.0014252311 -0.09775329 -0.064193495 -0.0138449455
0001e0 1a 8f 68 bd de f9 81 bd a2 04 ac bd 0f f4 cf bc
       -0.056777097 -0.063464865 -0.08399321 -0.02538493
0001f0 00 c0 90 3c 00 22 cf 3d 4b b2 56 3d a9 ee f4 bb
       0.017669678 0.10113907 0.052416127 -0.0074747396
000200 eb a4 38 bb 7f 57 af 3c 40 46 53 3d 6d 44 97 bd
       -0.002817447 0.021404026 0.051580667 -0.07386098
000210 b2 5e 4e 3d ab 8f 2b 3d e2 f3 54 3d 74 f0 a4 bc
       0.050383277 0.04188506 0.051990397 -0.020134188
000220 f2 9c d5 bc 4f 7c 72 bc 3d 81 8b bd e2 5f 2f bd
       -0.026075814 -0.014800145 -0.068117596 -0.04281605
000230 56 8a cf 3c 57 67 ce 3c 08 0b 9a 3c ae f5 92 bd
       0.025334518 0.02519576 0.018804088 -0.07175766
000240 ec 23 03 bd 2d dc 74 bd 55 63 81 bd 7f 31 1e 3d
       -0.03201668 -0.05978029 -0.06317774 0.038621422
000250 50 8a 98 bc 1b 28 f8 3b 3e 83 a1 3b 5b 41 90 3d
       -0.01862064 0.0075731403 0.0049289754 0.070437156
000260 9f c7 8f 3d d0 27 0e 3c 8d 3d 80 3d de 9d 13 3e
       0.070204966 0.008676484 0.0626174 0.1441569
000270 eb cc f9 bd d8 4b ac 3d 82 7f 21 3d de 0f 14 3d
       -0.12197288 0.084129035 0.03942824 0.036147945
000280 41 7c 4c 3c 55 78 4f bd 9e 21 a3 39 bc 6e d8 bb
       0.012480796 -0.050651867 0.0003111483 -0.0066049974
000290 ca 2f bc 3d 9f e0 55 3d e2 63 9f bc 08 c2 9a 39
       0.091888025 0.05221617 -0.019456808 0.00029517733
0002a0 8e b7 00 3d 66 5a 8f 3d 37 db 87 bd 36 e7 88 bd
       0.03142505 0.06999664 -0.06633609 -0.06684725
0002b0 9f 22 90 3d 51 da 4b bd 0b 34 7e 3c e0 3c bc 3d
       0.070378534 -0.04976875 0.015515338 0.091912985
0002c0 43 92 a8 3d c2 b7 47 bd 63 2c b6 3c 77 c0 0b 3c
       0.08231022 -0.04875923 0.022237962 0.008529774
0002d0 c4 76 cb bd 44 fa f5 3d 10 78 26 3d 23 13 05 bd
       -0.09934762 0.12010625 0.040641844 -0.032488953
0002e0 68 01 57 3d 32 0a 32 3d 91 23 ad 3d 34 20 1d 3d
       0.052491575 0.043466754 0.084540494 0.03836079
0002f0 35 53 20 3d df c4 b3 3c 66 34 ce bc 00 5a 2c bd
       0.039141852 0.021944461 -0.02517147 -0.04207802
000300 d3 c1 8b bc 14 21 76 bc f7 aa 43 bc 61 5e 9d bd
       -0.017060196 -0.015022535 -0.011942617 -0.07684017
000310 1d 97 c6 bc bd aa bb bc db ed 25 3d 0f bb 11 3e
       -0.024241978 -0.022908563 0.04051004 0.14231513
000320 d8 1a 27 be 0f 38 d5 3d cb 0f 01 3d ce 75 f8 3c
       -0.16318834 0.10411083 0.031509202 0.030329611
000330 1a 79 e2 3b 3c 0f b2 3d d6 f9 34 bd a8 d1 9d 3c
       0.006911409 0.08694312 -0.044183575 0.019265011
000340 ee 86 57 bb cd e6 69 bd 83 a6 a5 bc 44 49 61 3d
       -0.003288682 -0.057104874 -0.020221 0.055001512
000350 08 08 8c bc 45 23 42 bd 4c ae 25 3d a3 ee 55 bd
       -0.017093673 -0.047396917 0.040449426 -0.052229535
000360 bf af db 3c 47 b8 f9 3c 5e 14 78 3d 42 87 75 bd
       0.0268172 0.030483378 0.0605663 -0.059943445
000370 73 88 17 3d e3 57 fd bb 4e e0 aa 3c b3 c0 1d 3b
       0.036995362 -0.007731424 0.02085891 0.0024071157
000380 cc 22 e1 3d b6 ed a8 be 25 4b ab 3d 0d e3 6e bc
       0.10992965 -0.3299386 0.08363942 -0.0145805
000390 b8 68 b3 3c a5 b8 3d bc 28 64 1b 3e 48 c7 0b be
       0.02190052 -0.011579667 0.15174925 -0.13650239
0003a0 87 5b 44 3c d0 72 49 bd 7d 56 f1 bc 43 2b f3 3c
       0.011984712 -0.04918176 -0.029460186 0.029683715
0003b0 7f d9 ad 3d bd b8 ab 3d 74 79 7f bc 44 9d 99 bc
       0.0848875 0.083848454 -0.0155929215 -0.018751748
0003c0 3c 37 63 bd 29 16 48 bc 2d d0 57 3d 05 94 93 3d
       -0.055472597 -0.012212315 0.052688766 0.07205967
0003d0 72 ad e9 bc fe ae 09 39 16 32 25 bd 3a d7 01 3d
       -0.028525088 0.00013130528 -0.04033097 0.031699397
0003e0 83 19 03 3e 10 e7 19 3e a7 34 fd 3d cd 50 4e be
       0.128027 0.1502955 0.12363558 -0.2014801
0003f0 b1 4c 2d 3d 66 8f 2a bb cb ba 9e 3c c3 d0 15 be
       0.042309467 -0.0026025414 0.01937618 -0.14630418

fc_policy.bias f4 [25]
000000 28 5d b8 3c d9 5b 80 3d 07 0b 8f bb ca bb da bc
       0.022505358 0.062675186 -0.0043653282 -0.026700873
000010 c9 23 55 bd ba 51 0c bd 35 fa 78 bd 51 1b d6 bb
       -0.05203608 -0.034257628 -0.06078549 -0.006534018
000020 17 88 a3 3b d3 38 7e bc fd 91 be 3b ec 4a 9a 3c
       0.0049905884 -0.015516478 0.005815743 0.018834554
000030 93 3f 51 3d 51 bf cc 3c c1 bf 3e 3c fa ff 43 bc
       0.05108602 0.02499357 0.011642397 -0.011962885
000040 db 47 60 3b c8 d4 a4 bc 1e f5 63 bc fe 37 d3 3b
       0.0034222517 -0.020120993 -0.013913421 0.006445884
000050 b1 8b d5 bc a8 69 6c 3c aa ee 86 bc fa 13 c6 3b
       -0.026067587 0.014429487 -0.016471226 0.006044862
000060 d7 37 e8 bb
       -0.0070867348

fc_value.weight f4 [1, 1600]
000000 5c 33 80 3c 65 af 4f bd 53 b8 59 3d 96 16 4d 3d
       0.01564949 -0.05070438 0.0531543 0.050070368
000010 53 eb 81 bd 95 38 89 bc 59 8f 97 bb a3 5d a6 3d
       -0.06343713 -0.016750613 -0.0046252427 0.081233285
000020 f9 b3 61 bb 9e 77 f3 3b b1 ee bb bd 3a 5b bf 3c
       -0.0034439547 0.007430031 -0.09176386 0.02335893
000030 8d 7d ac bc 9a b2 a4 bd e1 b2 75 bd 6e 98 5e bd
       -0.021055961 -0.08041878 -0.059985045 -0.054344587
000040 fb a5 17 3c 98 72 9f bc a8 ff 2d 3c 20 44 5a 3d
       0.009255881 -0.019463822 0.010620035 0.053287625
000050 ec 9c c0 bc e2 9d f7 3d fd 03 c0 bc 93 cb 17 bd
       -0.023512326 0.12090661 -0.023439402 -0.037059378
000060 3e a8 26 bd 6f 87 37 bc 1e e8 ac 3c 49 27 1e bc
       -0.040687792 -0.0112017235 0.021106776 -0.009652921
000070 7f 28 f8 bc 62 f8 3a 3e 8e b6 14 bd fa d7 9a 3c
       -0.030292748 0.18258813 -0.03630691 0.018901814
000080 7e 7d 89 3c 39 b0 d3 bc a6 11 bf bc 7e 17 43 3d
       0.016783472 -0.025840865 -0.023323845 0.047629826
000090 aa e4 15 3d db 89 75 3d a2 4c 76 3d a3 7f 15 be
       0.036595024 0.059945922 0.060131676 -0.14599471
0000a0 02 67 81 bd 5d 0c 73 bd 2c 9a ac 3c 34 9f 06 bd
       -0.06318475 -0.059337962 0.021069609 -0.03286667
0000b0 cf 9b a7 bd dc 7b 1f bd ed 83 81 bb 21 bb 19 3d
       -0.08184015 -0.03893648 -0.0039524944 0.037531976
0000c0 3b eb 63 bd ac 7a ff ba 31 f7 fb bc b2 e4 09 bc
       -0.055644255 -0.0019491515 -0.030757518 -0.008416342
0000d0 f9 36 42 bc 92 80 cd 3c 18 6d 7f bd 75 a5 1a 3c
       -0.011853927 0.025085721 -0.0623599 0.009438862
0000e0 8e 81 60 3d d6 00 b7 3c 26 1d 30 bb 78 c6 f9 3c
       0.054811053 0.022339266 -0.0026872843 0.030490145
0000f0 96 3a be bc d1 d4 a0 3c fa 2d 67 3d b2 5c 69 bd
       -0.023221295 0.019632729 0.05644033 -0.056973167
000100 93 b1 1d bd 3a fc 6b bd 30 55 53 bd 14 36 92 bd
       -0.038499426 -0.05761359 -0.051594913 -0.07139221
000110 49 21 18 3d 52 aa a9 b8 06 39 01 3c 6e 9a e9 3c
       0.03714112 -8.0902726e-05 0.007887131 0.02851602
000120 a3 54 49 3d c8 1e 28 3d 29 30 f4 bc 12 f0 3d 3d
       0.04915298 0.04104498 -0.02980812 0.046371527
000130 6c 94 13 bc 42 91 55 bd 64 24 af bd 0e 4a fd bc
       -0.0090075545 -0.05214048 -0.08551863 -0.030919101
000140 f2 28 68 bd ee d9 37 3d 00 57 53 3c d6 19 72 bd
       -0.056679673 0.04488557 0.01289916 -0.05910667
000150 37 9d 21 3d 4a 2a 99 3d 11 52 84 3a ce f8 3d 3e
       0.039456572 0.07478769 0.0010095258 0.18551943
000160 4c 0b 03 bc 2d 7d a1 bd 8d 7a 43 3d 70 53 1d bc
       -0.007998299 -0.078852035 0.047724295 -0.009602413
000170 8a dd c5 bd b0 75 13 bd 70 cb 9a 37 37 52 ff bd
       -0.09661396 -0.036000907 1.8452964e-05 -0.12466853
000180 d5 e9 d1 3d bb 2c 62 bd db 69 8d 3d 55 1b 75 bd
       0.10249678 -0.05521844 0.06904956 -0.05984052
000190 07 48 b9 bc 71 2b d7 3c 18 89 b5 3c 1c 80 37 3c
       -0.022617353 0.026265832 0.022160098 0.011199977
0001a0 5e 22 89 3c 57 4d 50 bb a2 ae a8 3c dd c3 b3 bc
       0.01674002 -0.003178438 0.020591084 -0.02194398
0001b0 fc 0b 42 ba 3a 55 ba bc b7 f0 b5 3c 9a a6 88 3d
       -0.00074022985 -0.022745717 0.022209508 0.06672402
0001c0 55 18 35 bd d3 c9 aa bc 9a 1a c1 bd 46 5e 38 bd
       -0.044212658 -0.02084819 -0.09428902 -0.04501178
0001d0 92 ac 89 3c dd 62 71 bc 79 0e 16 bd d8 67 bd 3c
       0.01680592 -0.0147330435 -0.036634896 0.023120806
0001e0 7e 5c b0 bd b2 3a 6f bb c8 06 9f 3d d8 3b bf 3d
       -0.086113915 -0.003650349 0.07764965 0.09337586
0001f0 7c ed a9 3b 5d 2f 35 bb 12 21 10 bc c4 6f 6c bd
       0.005185781 -0.002764664 -0.008796947 -0.057723776
000200 90 14 1d 3c db fb 05 be f5 0a 69 3d 39 f3 7d 3d
       0.009587422 -0.13084356 0.056895215 0.061999533
000210 3e 5b b6 bd 72 ea a7 3d 14 c5 79 bc a8 13 1a 3c
       -0.08904122 0.08199014 -0.015244741 0.0094041005
000220 38 b6 b2 3c 3d 0b 89 3c c9 6f a8 3d 43 b9 92 3c
       0.021815404 0.016728992 0.08224446 0.017910605
000230 44 87 71 3d 8f c4 92 bd 94 9c db bc 0f 6e aa 3c
       0.05896689 -0.07166397 -0.02680806 0.020804433
000240 aa a5 ae 3d 83 b1 bf ba ca 29 35 bd 0c 0c 21 be
       0.08527692 -0.0014625046 -0.044229306 -0.15727252
000250 57 93 e1 3c bb aa 10 3d 16 5d 0b bd 1f a6 85 3c
       0.027536077 0.03531907 -0.03402432 0.016314564
000260 90 84 f1 3b 68 ab 9d 3d a9 d1 86 bd 80 d9 90 3c
       0.007370539 0.07698709 -0.06582958 0.017681837
000270 7c dc ec bb 0c 9a 4e 3c cf b2 49 3c 9f 42 d1 bc
       -0.007228432 0.01260997 0.012310698 -0.025544463
000280 26 af a5 bc e8 ef 7a bd b4 55 e6 3d b9 e0 ef bc
       -0.020225119 -0.06126395 0.11246815 -0.02928196
000290 7a 14 11 bd e2 1d 7c 3d 17 4a 91 bd 86 95 a8 3d
       -0.03541992 0.061551936 -0.0709421 0.08231644
0002a0 24 ed 40 bb c0 0e 0b be e3 9c 5f 3c 63 a2 85 bd
       -0.0029438222 -0.13579845 0.013648245 -0.065251134
0002b0 56 0a 0e bd 19 66 8f 3d b9 46 f1 3c 09 b2 42 3d
       -0.034677826 0.070018955 0.029452669 0.04753307
0002c0 26 d5 42 bd eb 56 25 3d 00 4c d7 3c 1f 68 d1 bc
       -0.047566555 0.040366095 0.026281357 -0.025562344
0002d0 2a 6d ed bd 36 4c c5 3d 9c 29 cc 3d f8 11 84 bd
       -0.11593087 0.09633677 0.09968874 -0.0644874
0002e0 88 fe 8c bd ac c6 a4 bd 20 73 21 bc 8f 6f 0b bd
       -0.068844855 -0.08045706 -0.009854108 -0.034041937
0002f0 1e 39 84 bc 46 1b 6b 3d 37 f7 a0 3d a0 2c 26 3c
       -0.016140517 0.057399057 0.078596525 0.010142475
000300 a3 c7 b7 bd 32 1c 24 bd 74 36 d7 3d fb f7 fe 3c
       -0.089736246 -0.04006595 0.10508433 0.031124106
000310 d5 90 c1 3d a7 d5 95 3d dc 89 02 be c5 bd 71 bd
       0.09451453 0.073161416 -0.12747902 -0.05901887
000320 17 74 8f 3c 1a a0 a0 bc 2b 98 ec bc 77 df a4 bc
       0.01751141 -0.019607592 -0.028881153 -0.020126088
000330 5b 75 ea 3c a5 c4 53 ba 98 55 ef 3a b6 2d de bc
       0.028620413 -0.00080783135 0.0018259762 -0.027121406
000340 0b 9f 3f 3d ce 64 69 3d 24 77 b8 bc 7c fe 87 39
       0.046782535 0.0569809 -0.022517748 0.00025938812
000350 ee a6 b7 bd 39 0b dc 3c 17 d8 e6 3d b4 83 36 3d
       -0.08967386 0.02686082 0.112716846 0.044559196
000360 e1 c7 8c 3d 24 8c 8c 3c d2 1c 69 bd 4e bb 8c bd
       0.068740614 0.017156668 -0.05691225 -0.06871663
000370 d4 dc eb 3c 0b 56 ab 3b 85 c4 f9 bd 68 63 9a 3c
       0.028791822 0.005228763 -0.12195686 0.018846229
000380 04 32 99 3d 93 61 a4 bc 08 e4 b8 3d 1f c6 06 3b
       0.07480243 -0.020066058 0.090278685 0.0020564867
000390 7a 1f 6c bc 41 06 84 3d b7 21 24 bd fb 9a 0d bd
       -0.0144118015 0.06446505 -0.040071215 -0.03457163
0003a0 40 23 b0 bc 8a 1b 9c 3c aa 4a a3 bd 63 52 2e bc
       -0.021501184 0.0190561 -0.079732254 -0.01063976
0003b0 23 4f 50 3d 02 3a c1 3c 5f b2 19 bd f9 5a 67 3d
       0.05085672 0.02358723 -0.037523624 0.056483243
0003c0 7c 5b 84 bc 37 06 00 bd 14 fc a6 3d 86 38 a8 3d
       -0.016156904 -0.031255927 0.08153549 0.08213906
0003d0 9f cf c1 3b aa 87 ef bc 40 ca 0e bd 00 88 73 3d
       0.005914643 -0.029239494 -0.03486085 0.05945587
0003e0 31 02 1c bd 96 8d 15 bd 8e 44 36 bb 75 17 17 bd
       -0.038088027 -0.03651198 -0.0027811858 -0.036887605
0003f0 ce 90 dc 3d a4 cf 0f bb 17 d3 a1 bd 97 7b a7 bb
       0.10769807 -0.0021943832 -0.0790159 -0.0051111686
